notes/cs 583 tian han/CS583-past years/CS583/Assignment 2/h3data/checkpoints/h10-bs16/decoder.pt (torch, 14267 bytes, 13 tensors)

weight f4 [29, 10]
0	0x3f21c974	0.6319802
1	0x3ece7eda	0.40331155
2	0xbe34f712	-0.17672375
3	0x3e45e93d	0.19327255
4	0x3efa3471	0.48868135
5	0x3d0fb198	0.035081476
6	0x3ddf9c23	0.109184526
7	0xbf091fb1	-0.5356398
8	0x3dddc0c7	0.10827785
9	0xbe605266	-0.21906433
10	0x3f196b07	0.59928936
11	0xbd604755	-0.054755528
12	0xbd930b2e	-0.07179867
13	0xbdaebecc	-0.08532485
14	0xbea2004a	-0.31640846
15	0x3ddb5360	0.10709262
16	0x3eb0ee40	0.3455677
17	0xbe3bf191	-0.18353869
18	0x3e012477	0.12611566
19	0x3e7a92a3	0.2447
20	0xbf06e182	-0.5268785
21	0x3f0435bf	0.5164451
22	0xbe63757d	-0.22212787
23	0xbd738493	-0.059452605
24	0x3e530619	0.20607795
25	0xbf012293	-0.5044338
26	0x3e60a241	0.21936895
27	0xbea3c5ea	-0.31986934
28	0xbf5159dc	-0.8177774
29	0xbe9a0fb4	-0.30090106
30	0xbf2b7e7d	-0.6698988
31	0x3edbd4d0	0.429358
32	0xbe7df908	-0.24802029
33	0xbeb1f383	-0.34756097
34	0x3e0c9e9b	0.13732378
35	0x3db56757	0.08857601
36	0x3c751b7b	0.014960165
37	0x3ee24994	0.4419676
38	0x3d2b2b2d	0.041789223
39	0xbeb53d15	-0.35398164
40	0xbebfd25a	-0.37465173
41	0xbe8ef85b	-0.27923855
42	0xbdb27fe7	-0.08715802
43	0x3e67d78a	0.22640815
44	0x3e84944c	0.25894392
45	0xbe965d75	-0.29368177
46	0xbdf6c664	-0.12049559
47	0xbe415288	-0.1887914
48	0x3e8f0ffd	0.27941886
49	0xbddb7fd9	-0.107177444
50	0x3d86f36d	0.065893985
51	0xbf0b261e	-0.5435504
52	0xbd19f63e	-0.03758835
53	0x3dbf662f	0.09345662
54	0x3b58b697	0.0033067816
55	0x3cd980ff	0.026550768
56	0xbe86f9f6	-0.2636258
57	0xbec2a2e6	-0.38014907
58	0xbe63563a	-0.22200862
59	0x3ed85a2f	0.42256305
60	0xbdd1719b	-0.10226747
61	0xbddf7a7a	-0.109120324
62	0xbeb70826	-0.35748404
63	0x3ec24aa5	0.37947574
64	0xbefcf2f1	-0.494041
65	0xbe3ad196	-0.18244013
66	0xbdd1b210	-0.10239041
67	0xbf07e572	-0.5308448
68	0x3e56530d	0.20930119
69	0xbf23babe	-0.6395682
70	0xbe9d8d86	-0.30772036
71	0xbedfc4c4	-0.43704808
72	0x3e388ca8	0.18022406
73	0x3d8ed3e3	0.06974008
74	0x3ec3b054	0.38220465
75	0xbcb01c8e	-0.021497991
76	0x3e0a2ce8	0.13493693
77	0xbd74f760	-0.059806228
78	0x3ee20645	0.44145408
79	0x3df73232	0.12070121
80	0xbeb15b33	-0.34639892
81	0x3d69f03b	0.057113867
82	0xbf26f936	-0.65224016
83	0x3e094dad	0.13408537
84	0xbeadd3e0	-0.3395071
85	0x3f0c1f79	0.54735523
86	0x3ea74dc3	0.32676515
87	0xbeac5475	-0.33658186
88	0xbe26044c	-0.16212577
89	0xbf4e7d6b	-0.8066012
90	0x3f315c89	0.6928182
91	0x3d592283	0.05301143
92	0x3e9a27a8	0.3010838
93	0xbdeac04e	-0.114624605
94	0xba96cb37	-0.0011504655
95	0xbdf241c7	-0.11828952
96	0xbd9acc18	-0.07558459
97	0x3cb81ae6	0.022473764
98	0xbda8196d	-0.082079746
99	0x3ec97f60	0.39354992
100	0xbfac1f80	-1.3447113
101	0x3e8e2f53	0.2777048
102	0xbe5e7f5b	-0.2172827
103	0x3eb63671	0.3558841
104	0x3e1acbba	0.15116778
105	0xbfbcef67	-1.476056
106	0x3e89f0cd	0.2694153
107	0xbec4bba5	-0.3842441
108	0x3f1d1e83	0.6137468
109	0xbf531806	-0.8245853
110	0xbe9973f0	-0.29971266
111	0x3e2f6862	0.17129663
112	0xbf43793c	-0.76356864
113	0x3ef0ece5	0.47055736
114	0x3e1ae081	0.15124704
115	0xbf0062ee	-0.50150955
116	0x3e562f29	0.20916428
117	0x3ec9506c	0.3931917
118	0x3f81d310	1.0142536
119	0xbe186830	-0.14883494
120	0x3db3851e	0.087656245
121	0xbd17120d	-0.03688245
122	0xbe367b69	-0.17820515
123	0x3c5f0dc7	0.013614125
124	0xbd43c10c	-0.047791526
125	0xbf23ea84	-0.6402972
126	0x3dc76ef7	0.09737962
127	0x3ece6ca2	0.40317255
128	0x3e192410	0.14955163
129	0xbea78237	-0.32716534
130	0x3e531e8f	0.20617126
131	0x3e80b238	0.2513597
132	0x3eadc60f	0.3394017
133	0x3be6bfe7	0.0070419195
134	0x3c87c3a8	0.016572788
135	0x3d19b44e	0.037525468
136	0x3e2210f8	0.15826786
137	0x3e9965e8	0.2996056
138	0xbe9a6965	-0.30158535
139	0xbf02e76a	-0.5113436
140	0xbe1d66e3	-0.1537128
141	0xbd8a7c0b	-0.067619406
142	0x3e6b69c2	0.22989562
143	0x3e4d3376	0.20039162
144	0x3d211b2a	0.039332546
145	0x3d32de2f	0.043668922
146	0xbe545461	-0.20735313
147	0x3ee9e0a4	0.456792
148	0x3e21c587	0.15798007
149	0xbe9d4be1	-0.30721954
150	0x3edf0f84	0.43566525
151	0x3daa1d22	0.08306338
152	0xbebbf3b9	-0.36709383
153	0xbeb97575	-0.36222425
154	0x3de760d4	0.112977654
155	0x3ebce940	0.36896706
156	0xbd83e48b	-0.064400755
157	0x3dea2a32	0.11433829
158	0xbe598019	-0.21240272
159	0x3d9a4936	0.07533495
160	0x3d9bb683	0.07603171
161	0xbe41ce7a	-0.18926421
162	0xbebf6e07	-0.37388632
163	0x3eb5dc22	0.3551951
164	0xbdbe4868	-0.09291154
165	0xbd50b8df	-0.050957557
166	0x3efb629c	0.4909867
167	0xbf0631a2	-0.52419484
168	0xbeb8206e	-0.35962242
169	0x3db767a5	0.089553155
170	0xbfebec3e	-1.843147
171	0xbfd6a52b	-1.6769155
172	0x3fb8812b	1.4414419
173	0x3fb5cc14	1.4202905
174	0xbf0e1556	-0.55501306
175	0x4090620d	4.511969
176	0x40ac70f1	5.388787
177	0x3da1aa77	0.07893842
178	0xbf29249a	-0.66071475
179	0xbed301a6	-0.41212195
180	0xbeafde3b	-0.34349236
181	0x3e87df08	0.26537347
182	0x3e8be281	0.27321246
183	0x3edb8134	0.42872012
184	0xbd7bbd32	-0.061459728
185	0xbea2dac1	-0.3180752
186	0x3e029d97	0.12755428
187	0x3dbea8fa	0.093095735
188	0xbddecffa	-0.10879512
189	0xbe1db1ba	-0.15399829
190	0xbf1b9205	-0.60769683
191	0x3dfe28e3	0.12410142
192	0xbe101ac5	-0.14072712
193	0x3e49fe6a	0.19725958
194	0x3dc248d7	0.09486549
195	0xbddd1346	-0.10794692
196	0xbda0b650	-0.07847273
197	0xbe98d269	-0.2984803
198	0x3e766749	0.24062838
199	0x3e2de9f0	0.16983771
200	0xbf01baeb	-0.5067584
201	0x3d9e1b34	0.07720032
202	0x3e138eb4	0.14409906
203	0xbe4069d4	-0.1879037
204	0x3e1ec29e	0.15503928
205	0x3e6bc774	0.23025304
206	0x3e8f2a9e	0.27962202
207	0x3dd69185	0.104769744
208	0x3e2da465	0.16957243
209	0x3c117955	0.0088790255
210	0x3e3ca45f	0.18422078
211	0xbe716f01	-0.23577501
212	0xbe9736e9	-0.2953408
213	0xbde2f957	-0.11082714
214	0xbe5208d2	-0.20511177
215	0xbe9ee083	-0.31030664
216	0xbf1f8b99	-0.62322384
217	0xbdcea8be	-0.10090779
218	0xbe3b593d	-0.1829576
219	0x3e7bfa99	0.24607314
220	0x3f118903	0.5684969
221	0xbebe4d72	-0.3716846
222	0xbe80ff12	-0.25194603
223	0x3f04151c	0.5159471
224	0x3e9fd107	0.31214163
225	0xbeb2a2b2	-0.34889752
226	0xbde88008	-0.11352545
227	0xbe05bbc2	-0.13059905
228	0xbd43cdd3	-0.04780371
229	0xbf14abf1	-0.5807486
230	0xbe6e6b38	-0.23283088
231	0xbe08c1e1	-0.13355209
232	0x3e2d85c2	0.16945556
233	0xbf321c57	-0.69574493
234	0x3e4611a5	0.19342668
235	0xbe5e33b1	-0.21699406
236	0xbe6b8af2	-0.23002222
237	0xbf05d816	-0.52282846
238	0xbd81aedb	-0.06332179
239	0xbef41e69	-0.4767945
240	0xbdb63e7f	-0.08898639
241	0x3f28a7f6	0.6588129
242	0xbea4a124	-0.3215419
243	0xbe95ae54	-0.29234564
244	0xbe609e6e	-0.21935436
245	0xbe993c83	-0.2992898
246	0xbe80146d	-0.25015584
247	0x3f4da56d	0.80330545
248	0x3f37374a	0.7156874
249	0xbf0f4004	-0.55957055
250	0xbec27849	-0.37982395
251	0x3f20e2f9	0.6284633
252	0x3ee09a96	0.4386794
253	0x3bb417e4	0.005496012
254	0xbe4ffeb4	-0.20312005
255	0x3ee5e120	0.4489832

weight f4 [10, 30]
0	0xbe0a6067	-0.13513337
1	0xbf35c33d	-0.71001035
2	0x3eb8ad64	0.36069787
3	0xbeac1fef	-0.33618113
4	0xbf924e77	-1.1430196
5	0x3e6e3bed	0.23265047
6	0xbf32b3d9	-0.69805676
7	0xbd93faf3	-0.07225599
8	0x3f62eb60	0.88640404
9	0x3d849ec3	0.06475594
10	0x408a8dc9	4.3298078
11	0x3f9760de	1.1826437
12	0x3f22eea8	0.6364541
13	0xbd794792	-0.06085927
14	0xbef6fda1	-0.48240378
15	0x40356e29	2.8348486
16	0x403d93a2	2.9621358
17	0x3f442b38	0.76628447
18	0xc0026170	-2.037197
19	0x3fb57750	1.4177036
20	0x3db65642	0.08903171
21	0x3f5fd3d0	0.87432575
22	0x3f4df3e5	0.8045028
23	0x3e45ec71	0.19328476
24	0x3fc5ac9b	1.54433
25	0x3f151c82	0.58246624
26	0xbc72e4f5	-0.014825095
27	0x3e0ab865	0.13546903
28	0xbf5b88d6	-0.8575567
29	0xbefe3fbb	-0.49657997
30	0x40006fe8	2.0068302
31	0x3f5632ff	0.83671564
32	0x3f62b6fe	0.88560474
33	0x3e43da6b	0.19126289
34	0xbf1fbdef	-0.6239919
35	0x3fd38d33	1.6527466
36	0x3f76721c	0.9626787
37	0x3e85b985	0.26118103
38	0xbf51fa58	-0.8202262
39	0xc0262654	-2.5960894
40	0xbe1b4e6c	-0.15166634
41	0x3eecba92	0.46236092
42	0x3fdc1613	1.7194237
43	0x3fd4707e	1.659683
44	0xbf76616d	-0.9624241
45	0x3e390287	0.1806737
46	0xbfa8ff3c	-1.3202891
47	0xbfeaca93	-1.8343071
48	0xbf172f67	-0.59056705
49	0x403ce104	2.9512339
50	0x3f57e0c2	0.8432733
51	0x3dc0d30e	0.094152555
52	0x3e47ed03	0.19524007
53	0xbe22fef4	-0.1591757
54	0x3f061f32	0.5239135
55	0x3f168d7e	0.5880965
56	0xbf2f7613	-0.6853954
57	0x3f352604	0.7076113
58	0xbe045eb0	-0.12926745
59	0x3f52bb43	0.8231699
60	0x3fe7a2e8	1.809659
61	0xbf414451	-0.7549487
62	0xbe87a2f4	-0.2649151
63	0x402e1f4a	2.7206597
64	0x3f2c4f9b	0.6730897
65	0x402edd9f	2.7322767
66	0x3de8d96b	0.11369594
67	0xbfde24ee	-1.735502
68	0xbfda0d7b	-1.7035364
69	0xc02cc331	-2.6994135
70	0xbfedfbdb	-1.8592485
71	0x4039a479	2.9006636
72	0x3f387822	0.7205831
73	0x3fb36e8d	1.4018112
74	0x3e45e4fc	0.19325632
75	0xbf01c83f	-0.50696176
76	0xbf12d373	-0.57353896
77	0x40b92ed5	5.786967
78	0xbf419ba8	-0.7562814
79	0x3faad7e9	1.334714
80	0xbfc95ea4	-1.5732007
81	0x400d18b3	2.2046325
82	0xbf972948	-1.1809473
83	0x3e2bbff7	0.16772448
84	0x3ff1d417	1.889285
85	0x3e729ae6	0.23691902
86	0x3d121e90	0.035673678
87	0xbd247fd1	-0.040160958
88	0xbe3a778c	-0.18209666
89	0xbff2ac6a	-1.8958867
90	0xbf47662f	-0.77890295
91	0xbf9a2bf4	-1.2044663
92	0xbf8c4784	-1.0959325
93	0x3eb35c13	0.35031185
94	0x3f3a146a	0.726874
95	0xbf052029	-0.520022
96	0xbf8c415b	-1.0957445
97	0x3f84f122	1.0386088
98	0xbf9cae08	-1.224061
99	0xbfb888d0	-1.4416752
100	0xbd10d343	-0.035357725
101	0xc073d26b	-3.809718
102	0x4035698b	2.8345668
103	0xc04097c3	-3.0092628
104	0xbfe240bd	-1.7676007
105	0xc0298183	-2.6485298
106	0x3f887ba7	1.0662736
107	0xc022c298	-2.543127
108	0x3f4bd335	0.7961915
109	0x3fc12ebc	1.5092387
110	0xbea61787	-0.32439825
111	0x3ea70700	0.32622528
112	0x3ece4e77	0.4029424
113	0x3ecadaa3	0.39619932
114	0xbf0e827b	-0.5566785
115	0xbe2a5eb1	-0.16637684
116	0x3fa42035	1.2822329
117	0x3efa1ae5	0.48848644
118	0xbf924aab	-1.1429037
119	0xbf5ab377	-0.8543009
120	0x3f15cef2	0.585189
121	0xbfe834c6	-1.8141105
122	0xbf6109a2	-0.87905324
123	0x3ff4d60a	1.912782
124	0xbf879eb4	-1.0595307
125	0x400ef157	2.2334802
126	0xbd696986	-0.0569854
127	0x3f1c40cc	0.6103637
128	0xbf146b10	-0.57975864
129	0xbfa5f95c	-1.2966723
130	0x3eda5ec2	0.4265042
131	0x3f630889	0.886849
132	0x400fd61e	2.2474437
133	0x3ee25a87	0.44209692
134	0x400a3a55	2.1598103
135	0xc057cd67	-3.3719118
136	0x4009ecfe	2.1550899
137	0x3f592273	0.8481819
138	0x4011f21e	2.2804027
139	0x3fbdd477	1.4830464
140	0x3eb56437	0.3542802
141	0x3f4d2a06	0.8014225
142	0x3eaae12c	0.33374918
143	0x3f3a5160	0.7278042
144	0xbf59ba47	-0.8504986
145	0xbec59a7c	-0.38594425
146	0x3e0f389d	0.1398644
147	0x3f1ef842	0.6209756
148	0x3e4722c5	0.19446857
149	0xbf2ae359	-0.66753155
150	0x3d476bf3	0.048686933
151	0x3f88e93b	1.0696176
152	0x3f0ceac9	0.55045754
153	0x3f750f3c	0.9572637
154	0x3f63fc4f	0.8905687
155	0x3f15309b	0.5827729
156	0xbcd4f6b8	-0.02599655
157	0xbfb31a85	-1.3992468
158	0x3f4316d2	0.76206696
159	0xbf0ccc46	-0.54999197
160	0x3fb3d842	1.4050372
161	0xbf6cbd71	-0.92476565
162	0x3fb187ff	1.3869628
163	0xc02355d0	-2.5521126
164	0xbc3b693d	-0.011438665
165	0xbf143085	-0.57886535
166	0xbe98f5f8	-0.2987516
167	0x3fc0e6d5	1.5070444
168	0xbfa28a89	-1.2698528
169	0x4008b48d	2.13602
170	0xbda205f0	-0.07911289
171	0x3f7c3654	0.985204
172	0x3cf9509f	0.030433951
173	0x3e531d3b	0.2061662
174	0x4020c817	2.5122125
175	0x3fb24a6e	1.3928964
176	0xbdc505ad	-0.09620223
177	0xbe9a94e3	-0.30191717
178	0xbd64d46f	-0.055866655
179	0xc00ebbe6	-2.2302184
180	0x40125d05	2.2869275
181	0x3f305b11	0.68888956
182	0x3f49c233	0.7881195
183	0x3e523651	0.20528533
184	0xbf8f96ab	-1.1217855
185	0x3e9b07d6	0.30279416
186	0x3fb37aa1	1.4021798
187	0x3f14076d	0.5782383
188	0xbeabc87d	-0.33551398
189	0x3ec0cf1d	0.37658015
190	0x3ff0aa45	1.8801962
191	0xbe6288ac	-0.22122449
192	0x40d35a69	6.6047864
193	0xc030e679	-2.764067
194	0x3efcf41d	0.49404994
195	0xbfa40b93	-1.2816032
196	0xbe0aae3c	-0.13543028
197	0xbdc68b03	-0.09694483
198	0x3fa4998e	1.2859361
199	0x3faefbf3	1.3670639
200	0x3f4d5a6b	0.8021609
201	0x3f5ab294	0.8542874
202	0x3f0a0139	0.53908116
203	0xbf6ab228	-0.91678095
204	0x403b5ae1	2.9274218
205	0x3f5b38ce	0.8563355
206	0x3f821207	1.0161752
207	0x3ea97f9c	0.3310517
208	0xbeaf2519	-0.3420799
209	0xbfc77d91	-1.5585195
210	0x3e8969bf	0.2683849
211	0x3ddc348f	0.10752212
212	0x3ef129e8	0.47102284
213	0xbf27df98	-0.6557555
214	0xbf0209c9	-0.5079618
215	0x3f7b0eae	0.98069274
216	0x3fb033ab	1.3765768
217	0xbe8cb581	-0.27482226
218	0x3f74d166	0.95632017
219	0xbf2facb7	-0.68622917
220	0xbfb04348	-1.3770533
221	0xbfc1060d	-1.5079972
222	0x3df731d4	0.12070051
223	0xbfb32539	-1.3995734
224	0x3c7d4315	0.015457888
225	0xbf943a04	-1.1580205
226	0xbf2a9f52	-0.66649354
227	0x3fd3b9ac	1.6541038
228	0xbf8da411	-1.1065694
229	0x3edcbda9	0.4311345
230	0xbd2e0ca4	-0.042492524
231	0x3fa72618	1.30585
232	0x3f8c03f1	1.0938703
233	0x3f661ccd	0.89887697
234	0x3f826ca5	1.0189406
235	0xbf10b3d2	-0.56524384
236	0x3eb93143	0.36170396
237	0x3f2dadda	0.678434
238	0x3f90fe33	1.1327575
239	0xc00db685	-2.214265
240	0x40141b9e	2.3141856
241	0x3fd7fbfb	1.6873773
242	0xbe8e997f	-0.27851483
243	0xc039c630	-2.9027214
244	0xbea8e3c8	-0.32986283
245	0x4052febb	3.2967975
246	0xbfc0a173	-1.504927
247	0x3fbf83dc	1.4962115
248	0xbf1c8fcf	-0.61156934
249	0x3f4548a2	0.77063954
250	0xbf88c3f1	-1.0684797
251	0x3e69fe14	0.2285083
252	0x3ff9a132	1.9502318
253	0x3feb8929	1.8401233
254	0x3eeaf435	0.4588944
255	0x3f61f45a	0.88263476

bias f4 [10]
0	0xc0617c1d	-3.5232003
1	0x3f6b9946	0.9203075
2	0x3ea31480	0.31851578
3	0xc02134a1	-2.5188372
4	0x3f62c2b5	0.8857835
5	0xc04c8325	-3.1955044
6	0xbfecbcfa	-1.8495171
7	0xc0409830	-3.0092888
8	0xbd131335	-0.03590699
9	0x3ff17124	1.8862653

weight f4 [10, 30]
0	0xbe044317	-0.12916218
1	0xbfb1e9b6	-1.3899448
2	0xbecfc6fb	-0.40581498
3	0xbdbcd426	-0.092201516
4	0xbdcf314f	-0.10116827
5	0xbf5bbe50	-0.8583727
6	0xbe809f64	-0.25121605
7	0xbf641440	-0.890934
8	0xbf1d734a	-0.6150404
9	0xbed2f911	-0.41205648
10	0x3e790a9a	0.2432045
11	0x3f381937	0.71913475
12	0x3e301bc2	0.17198089
13	0xbfb67512	-1.4254477
14	0x3f22636e	0.6343297
15	0x3f92480a	1.1428235
16	0xbf23c03f	-0.6396522
17	0xbf262886	-0.64905584
18	0xbf701e87	-0.9379658
19	0xbf7f7bee	-0.99798477
20	0xbf00c213	-0.50296134
21	0x3e721852	0.2364209
22	0xbec100ea	-0.3769601
23	0xbde79ddc	-0.11309406
24	0xbf00f0e1	-0.5036755
25	0x3f2a14b7	0.6643786
26	0xbd7fbdea	-0.062436976
27	0xbe290e12	-0.16509274
28	0xbdce7ca7	-0.10082369
29	0xbf9a065d	-1.2033192
30	0xbf1e7f8d	-0.6191338
31	0xbf6019bf	-0.87539285
32	0xbc97b133	-0.018517112
33	0xbe932669	-0.28740242
34	0xbef1e793	-0.4724699
35	0x3da368a1	0.07978941
36	0x3d6a13d7	0.057147827
37	0x3d95ef42	0.073210254
38	0xbf229213	-0.6350414
39	0x3f4ecd6c	0.807822
40	0x3e76b311	0.24091746
41	0xbec9baee	-0.3940043
42	0xbf79242e	-0.9732083
43	0xbfa4b868	-1.2868776
44	0x3f556665	0.83359367
45	0xbf8ee3c8	-1.1163263
46	0x3f75c5f5	0.96005183
47	0x3f7199b0	0.94375134
48	0xbe35556e	-0.1770837
49	0xbfb22c9a	-1.3919861
50	0x3d9fbdb8	0.07799858
51	0xbf34120b	-0.7034003
52	0xbe9116d2	-0.28337723
53	0xbf4b3b58	-0.79387426
54	0xbfe82cad	-1.8138634
55	0x3f3db7a3	0.7410833
56	0x3dd03f1e	0.10168289
57	0x3e14837b	0.14503281
58	0x3f696564	0.91170335
59	0x3f880a2e	1.0628107
60	0x3f181eb7	0.5942187
61	0xbe11341a	-0.14180031
62	0xbe931f50	-0.28734827
63	0xbe851206	-0.25990313
64	0x3f2407c3	0.64074343
65	0x3db2c5e7	0.08729153
66	0x3f2a5b4b	0.6654555
67	0x3dd949e7	0.10609799
68	0xbd36ca7f	-0.04462671
69	0xbe43a7ec	-0.19107026
70	0x3e7d0d55	0.24712117
71	0x3d9f9941	0.07792903
72	0xbf16f6ea	-0.5897051
73	0xbf40cfb7	-0.7531695
74	0x3fb57630	1.4176693
75	0x3f9f0c9f	1.2425727
76	0xbf7869f0	-0.9703665
77	0xbef67bdc	-0.48141372
78	0xbf172c12	-0.5905162
79	0xbf3874cd	-0.72053224
80	0x3d8b10ea	0.067903355
81	0xbe75ddf6	-0.24010453
82	0xc04ce360	-3.2013779
83	0xbf7ae12d	-0.9799984
84	0x3e81d55c	0.25358093
85	0xbbaa21e5	-0.005192029
86	0x3d7d33bd	0.06181692
87	0xbe73bdf9	-0.23802938
88	0xc0111e69	-2.267481
89	0x3fed6636	1.8546817
90	0xc01e5ffb	-2.4746082
91	0x3de00702	0.10938837
92	0x3ddf65c2	0.10908081
93	0xbe7481ce	-0.23877642
94	0x3f8abb4a	1.0838406
95	0x3fabad91	1.3412343
96	0xc01611ee	-2.3448443
97	0x3e70af9e	0.23504493
98	0xbfc9b6fb	-1.5758966
99	0xbf6759dc	-0.9037149
100	0x4059ca74	3.4029818
101	0xbf9033e5	-1.1265837
102	0xbe96232d	-0.29323712
103	0xc04ebb87	-3.2301958
104	0x3ff5edc7	1.9213189
105	0xbf8701d9	-1.0547439
106	0x3f108e4d	0.56467134
107	0x3f972b58	1.1810102
108	0xbf8d144b	-1.1021818
109	0xbf1de8e0	-0.61683464
110	0x3f383714	0.7195904
111	0x3f5db78c	0.86608195
112	0xbed959a5	-0.42451206
113	0x3ef7738a	0.48330337
114	0x3f93afb9	1.1538001
115	0x3f1e442a	0.6182276
116	0x3dabc814	0.08387771
117	0x3f2c956f	0.6741552
118	0xbf6ab478	-0.91681623
119	0xbf82278c	-1.0168319
120	0xbf5d7713	-0.8650982
121	0xbedcc6e2	-0.43120486
122	0xbefb4d5a	-0.49082452
123	0x3e67aae7	0.22623788
124	0xbeb01eeb	-0.3439859
125	0xbad43ab6	-0.0016191814
126	0x3ea6f2ce	0.3260712
127	0x3e54f560	0.20796728
128	0xbecf1216	-0.40443486
129	0x3dde375a	0.10850401
130	0x3fb564b6	1.417136
131	0xbd968288	-0.073491156
132	0xc0074b23	-2.113961
133	0x3e1f94c1	0.15584089
134	0xbe466f69	-0.19378437
135	0xbd1e8104	-0.038697258
136	0xbe5035f0	-0.20333076
137	0x3f8fecdc	1.1244159
138	0xbf9a009a	-1.2031434
139	0x40497c72	3.1482205
140	0xbde8da30	-0.11369741
141	0x3f8c4a4e	1.0960176
142	0x3e4bc0d0	0.19897771
143	0x3df81d8e	0.12115012
144	0xc03150a9	-2.770548
145	0x3f0855a8	0.532557
146	0xbe991cc6	-0.29904765
147	0x3d65a7be	0.056068175
148	0xbf8ffa28	-1.1248217
149	0x3eabaa54	0.33528388
150	0x3ee3f1d9	0.44520453
151	0x3f6cdc25	0.92523414
152	0x3d37b4c0	0.04485011
153	0xbdd1097a	-0.10206886
154	0x3f60db43	0.87834567
155	0x3e0c8d4d	0.13725777
156	0xbe8904c1	-0.2676144
157	0xbf234c5e	-0.637884
158	0x3e96ddf8	0.29466224
159	0xbf4b39c6	-0.7938503
160	0x3d81fe56	0.06347339
161	0x3f0d28ae	0.551402
162	0x3b93a054	0.0045051966
163	0xbff1275d	-1.8840138
164	0x3f5189b2	0.8185073
165	0x3f13bb0a	0.57707274
166	0xbed535a6	-0.41642493
167	0x3eff1e48	0.4982779
168	0xbf4d2c08	-0.8014531
169	0xbd64418b	-0.05572657
170	0x3e87acec	0.26499116
171	0x3d71c7cb	0.059028428
172	0x3e878bd2	0.26473862
173	0x3ce23f65	0.02761812
174	0xbec9acb1	-0.39389566
175	0x3e0d38eb	0.13791244
176	0x3ed2f807	0.41204855
177	0xbece2a72	-0.40266758
178	0xbef1042e	-0.470735
179	0xbf849832	-1.0358946
180	0xbe672420	-0.22572374
181	0xbe5f3cb3	-0.21800499
182	0x3e1528f2	0.145664
183	0x3f39b6b5	0.72544414
184	0x3f0ccf7c	0.55004096
185	0x3e368dd0	0.17827535
186	0x3f455243	0.77078646
187	0x3ea43c50	0.32077265
188	0xbfaa3112	-1.3296225
189	0x3f568a9e	0.83805263
190	0x3fb6bb1c	1.4275851
191	0xbe32b770	-0.17452788
192	0xbe89cebe	-0.26915544
193	0xc034928c	-2.8214445
194	0x40038354	2.0548906
195	0xbd81c167	-0.06335717
196	0x3ef3638e	0.47536892
197	0xbd441a7e	-0.047876827
198	0xbe196320	-0.1497922
199	0xbf85f36f	-1.0464915
200	0x3f85d6d6	1.0456188
201	0x3eb1a24d	0.34694138
202	0x3e55954c	0.20857733
203	0xbf22f93f	-0.6366157
204	0xbc8d3041	-0.017234923
205	0x3fc0124f	1.5005587
206	0x3f67e408	0.90582323
207	0x3e965051	0.29358152
208	0xbf135b41	-0.5756112
209	0xbf9b717e	-1.214401
210	0x3edb9a21	0.4289103
211	0xbf733eb3	-0.95017546
212	0xbeac6ad4	-0.33675253
213	0x3d31a8db	0.043373924
214	0xbda622a7	-0.08112078
215	0xbd3761da	-0.044771053
216	0x3f6574da	0.89631426
217	0x3ec3f2f3	0.38271293
218	0xbe9c46bc	-0.30522716
219	0xbea5eb21	-0.32405952
220	0x3d7ad20f	0.061235484
221	0xbea6f218	-0.32606578
222	0xbdc0e3a7	-0.09418421
223	0xc0057873	-2.0854766
224	0x3f1162e9	0.5679155
225	0xbe5249bf	-0.20535944
226	0xbf250763	-0.64464396
227	0x3e803258	0.2503841
228	0x3f6ad154	0.9172566
229	0xbdb96aa2	-0.09053542
230	0xbc4f60e0	-0.012657374
231	0x3e9a4f4e	0.3013863
232	0xbb1275e8	-0.002234811
233	0xbd8d9e59	-0.06914968
234	0x3df82641	0.12116671
235	0x3ecfe17b	0.40601715
236	0x3eb63800	0.355896
237	0x3ee752c1	0.45180324
238	0x3f0c0779	0.546989
239	0xbf698f39	-0.91234165
240	0xbd99c2a9	-0.075078316
241	0x3d50d9ce	0.050988965
242	0xbcb82608	-0.022479072
243	0x3d39d0a6	0.045365
244	0xbd666edb	-0.056258064
245	0xbbc610e8	-0.006044496
246	0x3cc1e0de	0.023666795
247	0x3dac9cb4	0.08428326
248	0x3d85aa78	0.06526655
249	0xbd9c09a0	-0.07619023
250	0x3e6d58dd	0.2317843
251	0xbb78c4a6	-0.0037959008
252	0x3ed19138	0.40931106
253	0x3e053dc9	0.1301185
254	0x3ec41f6a	0.38305217
255	0x3e7652d5	0.24055035

bias f4 [10]
0	0xc011a12c	-2.2754622
1	0xbf96a695	-1.1769587
2	0x3f9c4873	1.220961
3	0xc02d4670	-2.7074242
4	0xbf623838	-0.88367033
5	0xbf8dba98	-1.1072569
6	0xbfbcd136	-1.4751346
7	0xbfba822a	-1.4570973
8	0x3f12cbb7	0.57342094
9	0x3efcac36	0.49350137

weight f4 [10, 20]
0	0x3dc39ffb	0.09551998
1	0x3e81fcab	0.25388083
2	0x3d11c6e2	0.03559006
3	0x3d804032	0.06262244
4	0xbe0b5c8d	-0.13609524
5	0x3e7d70cb	0.24750058
6	0x3dec9787	0.11552339
7	0x3f0a3c2b	0.5399806
8	0x3dad9b58	0.08476895
9	0x3d71d2e5	0.059039015
10	0xbf18517c	-0.59499335
11	0x3d27e9ab	0.040994328
12	0x3e16ce81	0.14727212
13	0x3e389842	0.18026832
14	0x3e735113	0.23761396
15	0xbfce4fbc	-1.6118083
16	0xbfc87e51	-1.5663549
17	0xbe44e08d	-0.19226284
18	0x3e7eb5ef	0.2487409
19	0x3efa4baf	0.48885867
20	0xbf03e4ba	-0.51520884
21	0xbfae6b59	-1.362651
22	0x3ea4cea2	0.32188898
23	0xbfb821de	-1.4385335
24	0xbf2d86b8	-0.6778369
25	0xbf8ad3a9	-1.0845844
26	0x3f168551	0.58797175
27	0x3fafe685	1.3742224
28	0xbf602498	-0.8755584
29	0xbf39cad9	-0.72575146
30	0xbfacbfcd	-1.3496033
31	0xbf14004e	-0.57812965
32	0x3ff6b410	1.9273701
33	0xbedd63d3	-0.43240222
34	0x3f033b75	0.512626
35	0xbe9420c4	-0.28931248
36	0xbf89b7b1	-1.0759183
37	0xbf0f0862	-0.55872166
38	0x3f7b93db	0.98272485
39	0x3f64a645	0.8931621
40	0xbf49de42	-0.78854764
41	0xbcebd4b9	-0.028787958
42	0xbf813d67	-1.0096864
43	0x3ea1541a	0.31509477
44	0xbfc97a71	-1.5740491
45	0x3ecb91e2	0.39759737
46	0xbee6206e	-0.44946617
47	0xbef9592e	-0.4870085
48	0x3f4372dd	0.7634714
49	0x3f4eb386	0.8074268
50	0xbecb0d04	-0.39658368
51	0xbd0e9cc6	-0.03481748
52	0xbf614806	-0.88000524
53	0x3f8599cd	1.0437561
54	0xbe1fbe05	-0.1559983
55	0x3f79e7d0	0.9761934
56	0x3f8ba328	1.0909166
57	0x3f94833b	1.1602548
58	0x3e8c4d67	0.27402803
59	0x4004556c	2.0677137
60	0xbe563284	-0.20917708
61	0x3e4c5992	0.19956043
62	0xbf08c92f	-0.5343198
63	0xbe1683f9	-0.14698781
64	0xbc7de738	-0.015497021
65	0xbdadc767	-0.084852986
66	0xbecb2051	-0.39673093
67	0x3e85698b	0.26057085
68	0xbd7b5808	-0.06136325
69	0xbe2a27b9	-0.16616715
70	0xbec54f19	-0.3853691
71	0x3fea263b	1.8292917
72	0x3c930bae	0.017949905
73	0x3e80dc30	0.2516799
74	0x3ce4df7c	0.027938597
75	0x3f8aa98b	1.083299
76	0xbfc92058	-1.5712996
77	0x3faec1a0	1.365284
78	0x3e5e1e25	0.21691187
79	0x3da93f0e	0.0826398
80	0xbef83798	-0.48479915
81	0x3e83dcb4	0.2575432
82	0x3eca195c	0.39472473
83	0xbe128ce9	-0.14311565
84	0xbe3527da	-0.17690983
85	0xbf0b849e	-0.5449923
86	0xbe7ebe75	-0.24877341
87	0x3dd5b6c6	0.10435252
88	0xbd28cc3f	-0.04121041
89	0x3eb37374	0.3504902
90	0xbf6ebe67	-0.9325928
91	0xbe9cf35b	-0.30654415
92	0xbf788cfb	-0.9709012
93	0x3fa264e2	1.2687037
94	0x40051e01	2.0799563
95	0xbe37a760	-0.17934942
96	0x3eb7fc24	0.35934556
97	0xbea5ed8a	-0.3240779
98	0x3fbd9971	1.4812452
99	0x3f53020a	0.82424986
100	0x3f477f01	0.7792817
101	0xbb174010	-0.0023078956
102	0xbd469ff6	-0.048492394
103	0xbe873aa6	-0.26411933
104	0xbeb50936	-0.3535859
105	0xbdc4c0bf	-0.09607076
106	0xbe4da986	-0.200842
107	0xbeb40500	-0.35160065
108	0x3e5a5ffb	0.21325676
109	0xbe13ac12	-0.14421108
110	0xbfd31b33	-1.6492676
111	0x3f90d57f	1.1315154
112	0xbef28ada	-0.4737156
113	0xbd90b3cb	-0.07065543
114	0x3f3a83b8	0.72857237
115	0x3f8e985b	1.1140245
116	0x3f2882f1	0.658248
117	0xbff36c8d	-1.9017502
118	0x3d375473	0.04475827
119	0xbd726a72	-0.059183545
120	0x3df67598	0.12034148
121	0xbe8f48fb	-0.27985367
122	0x3e801e3e	0.25023073
123	0xbe55ee22	-0.20891622
124	0xbd309558	-0.043111175
125	0x3ec432f1	0.38320115
126	0xbe48f1c1	-0.19623472
127	0x3df062a5	0.11737565
128	0x3e6f0db1	0.23345067
129	0x3e8c6997	0.2742431
130	0x3f04b12f	0.5183286
131	0xbf432f7b	-0.76244324
132	0x3e35231f	0.17689179
133	0x3e0ecd4b	0.139455
134	0xbd922137	-0.071352415
135	0x3fb12895	1.384051
136	0xbf7c03f1	-0.98443514
137	0xbf901a8a	-1.1258099
138	0xbf273960	-0.6532192
139	0xbf20c895	-0.62806064
140	0xbdf63ace	-0.12022935
141	0xbd24639a	-0.04013405
142	0xbe6e4547	-0.23268615
143	0xbe25ddd3	-0.161979
144	0xbe8da7f0	-0.2766719
145	0x3e9601d8	0.29298282
146	0x3ed1f752	0.41009003
147	0xbee14897	-0.44000694
148	0xbdc571c9	-0.096408434
149	0x3e54d232	0.20783308
150	0xc0099dad	-2.1502488
151	0xbfb8edf1	-1.4447614
152	0x3e0bb6e1	0.13643982
153	0x3c63c428	0.013901748
154	0xbbfb4a58	-0.0076687746
155	0x3effc90d	0.49958077
156	0x3e42853c	0.18996137
157	0x401620d3	2.3457534
158	0xbe537893	-0.20651464
159	0xbd93cc9e	-0.07216762
160	0xbdfb1fab	-0.122618996
161	0xbea00250	-0.31251764
162	0xbe848fe2	-0.25891024
163	0xbdd1f02f	-0.102508895
164	0x3f155a8f	0.58341306
165	0xbe1b2c21	-0.15153553
166	0x3ebc677d	0.36797705
167	0xbdae51d6	-0.08511703
168	0x3dd13b57	0.10216396
169	0xbf03c798	-0.5147643
170	0xbf05edf2	-0.523162
171	0xbdcba466	-0.09943466
172	0xbfb8a94d	-1.4426666
173	0x3f6a5564	0.91536546
174	0xbf19e5af	-0.60116094
175	0x3f898b1e	1.074558
176	0xbf1f033d	-0.62114316
177	0xc015fbf8	-2.343504
178	0xbf8afb37	-1.0857915
179	0x3f8ca4ea	1.0987828
180	0x3faed2a0	1.3658028
181	0xbf11baf2	-0.5692588
182	0xbf47df11	-0.7807475
183	0x3e8e9a18	0.2785194
184	0x3e576d92	0.21037892
185	0xbebd214d	-0.3693947
186	0x3edee392	0.43532997
187	0xbf9b98a3	-1.2155956
188	0xbe2e59c0	-0.17026424
189	0x3ebeeb80	0.37289047
190	0xbfa853f6	-1.3150623
191	0x3e1b88d5	0.15188916
192	0x3fb40a23	1.4065593
193	0xbeb7c7b0	-0.35894537
194	0xbebb001f	-0.3652353
195	0x3fbdc095	1.4824396
196	0x3ca5505a	0.020179916
197	0xbfd4d24d	-1.6626679
198	0xbb5c72bb	-0.003363772
199	0xbf90f9df	-1.1326255

weight f4 [10, 10]
0	0xbe67c99f	-0.22635506
1	0x3ea74829	0.3267224
2	0x3d023a57	0.03179392
3	0x3ec244c3	0.37943086
4	0x40529e8e	3.2909274
5	0x3f05a39d	0.5220278
6	0xbfae511e	-1.3618505
7	0xbf279457	-0.65460724
8	0x3fc8e47c	1.5694728
9	0xbf925176	-1.143111
10	0xbe031c6b	-0.1280381
11	0x3f3cf2a4	0.7380774
12	0x3faceaae	1.3509119
13	0x3f1004d9	0.56257397
14	0x3fb16bad	1.3860985
15	0xbf5681dc	-0.837919
16	0x4005d6ec	2.0912428
17	0xbdee461e	-0.116344675
18	0x3ec0b926	0.37641257
19	0xc0869815	-4.2060647
20	0xbe89091d	-0.26764765
21	0xbf66723f	-0.90018076
22	0x403a2829	2.9087012
23	0xbf51fc69	-0.8202577
24	0x3f83690a	1.026643
25	0x3f11c427	0.5693993
26	0xbf3a9f72	-0.72899544
27	0x3f45c255	0.7724965
28	0x402ea48f	2.7287939
29	0xbec1fc66	-0.37887877
30	0x3ee07107	0.43836233
31	0xbf1d52ce	-0.61454475
32	0xbebbe469	-0.366977
33	0xbe0b8c2d	-0.13627692
34	0x404ca146	3.1973433
35	0xbe8c78e1	-0.27435973
36	0x3f6f3a9c	0.93448806
37	0x3e90900b	0.28234896
38	0x3db9d00e	0.090728864
39	0xc0006bfc	-2.0065908
40	0xbf53b254	-0.8269398
41	0x3d8a9fa8	0.06768733
42	0x3e373ea6	0.17894992
43	0x3ed13e01	0.40867618
44	0xbf974839	-1.1818916
45	0xbfce2e0a	-1.61078
46	0x3ecef3b1	0.40420297
47	0xbe97bea1	-0.29637626
48	0xbee1e532	-0.44120175
49	0xbe5c43dd	-0.21510263
50	0xbf915ea2	-1.1357005
51	0x3dff1d1c	0.12456724
52	0x3f1450b4	0.57935643
53	0x3e834377	0.2563741
54	0x3f94f9c7	1.1638726
55	0xc0853541	-4.1627507
56	0x3eeafc70	0.4589572
57	0x3e0378c3	0.12839036
58	0xbf554064	-0.8330138
59	0xbf08b9f6	-0.53408754
60	0x3fee6ca7	1.8626908
61	0xbe2c0a2c	-0.16800755
62	0x3fcd4845	1.603768
63	0xbfa28fb2	-1.2700102
64	0xbfe29b1e	-1.7703588
65	0x3fb545f3	1.4161972
66	0xc01367f9	-2.303221
67	0x3e2a824d	0.16651268
68	0xbfabc5a8	-1.3419695
69	0x3f394e2e	0.7238492
70	0xbff79b7f	-1.9344329
71	0x3ea55789	0.32293347
72	0xbe5064bd	-0.20350929
73	0x3fbdab52	1.4817908
74	0x3ead2e90	0.33824587
75	0xbf6fca8c	-0.93668437
76	0x3e9b7082	0.30359274
77	0xc058934c	-3.3839903
78	0x3ec136f1	0.3773723
79	0x3daf9816	0.0857393
80	0xbe973e55	-0.29539743
81	0xc058ed7f	-3.3894956
82	0x3fc06abd	1.5032574
83	0xbfada961	-1.3567315
84	0xbf345913	-0.70448416
85	0xbf908b9a	-1.1292603
86	0x3f7b821b	0.982454
87	0xbecb95e4	-0.39762795
88	0xbf8e3691	-1.1110402
89	0x3f3646ef	0.71201986
90	0xbe8be983	-0.27326593
91	0xbcc9cf0e	-0.024634864
92	0xc08146fd	-4.0399156
93	0xbf8761c1	-1.0576707
94	0xbed46afb	-0.4148787
95	0x3f074218	0.52835226
96	0xbee9a25e	-0.4563169
97	0xbde4e01c	-0.11175558
98	0xc030342d	-2.7531846
99	0x3f51006e	0.8164128

bias f4 [10]
0	0xbf50a74a	-0.8150526
1	0xbf71de1b	-0.9447953
2	0x3fd5759f	1.667652
3	0x3d1cf028	0.03831497
4	0x400b7298	2.1788692
5	0x3f048296	0.5176176
6	0xc00b2817	-2.174322
7	0xbf723944	-0.9461863
8	0x3fe4aa66	1.7864501
9	0xc01da004	-2.4628916

weight f4 [10, 20]
0	0x3dea7f7c	0.11450097
1	0x3f94639f	1.1592902
2	0x3f519c04	0.81878686
3	0xbe26ca69	-0.16288151
4	0xc033a337	-2.8068368
5	0x3f66d341	0.901661
6	0xbf1224ca	-0.57087386
7	0x3d557158	0.052110046
8	0xbfb21224	-1.3911786
9	0x3fbf25eb	1.4933447
10	0xbf162058	-0.586431
11	0x3eaabbd1	0.33346418
12	0x3ff8023c	1.9375682
13	0x3e64c7c2	0.22341827
14	0xc022df73	-2.5448883
15	0x3d122b22	0.035685666
16	0xbefd92a1	-0.4952593
17	0x3f0ff1ac	0.56228137
18	0x40fd9570	7.924492
19	0xc08a2174	-4.3165836
20	0x3f872a69	1.0559818
21	0xbe8a0b0b	-0.2696155
22	0x3e4bb096	0.19891581
23	0xbf8a8d2d	-1.0824333
24	0x4033d566	2.8098998
25	0x3b65567a	0.003499417
26	0xc040bc9c	-3.0115118
27	0xbe9ff82c	-0.31244028
28	0x3f642827	0.8912377
29	0x40812a01	4.0363774
30	0x40129612	2.2904096
31	0xbf5157d9	-0.8177467
32	0x3f4410fc	0.76588416
33	0x3f837329	1.0269519
34	0xbe4b7be5	-0.19871481
35	0x3efbf530	0.492105
36	0xbe5422a7	-0.20716344
37	0x3fd4c7e4	1.6623502
38	0x3faf4583	1.3693088
39	0x3fddb959	1.7322189
40	0xbe22cb9e	-0.15897986
41	0x40945511	4.635384
42	0xbfd40cc6	-1.6566398
43	0xbd0aa52f	-0.033848938
44	0xbfd43962	-1.6580012
45	0xbf3c892c	-0.7364681
46	0xbea33782	-0.31878287
47	0xbd1af08c	-0.03782706
48	0xbf3338ae	-0.7000836
49	0x3fccc085	1.5996252
50	0xbf0f6889	-0.56018883
51	0x3f152e3d	0.5827368
52	0x40694830	3.645031
53	0x3eb22d14	0.34800017
54	0x3ed915b5	0.42399374
55	0xbf05341d	-0.52032644
56	0x3e51d6da	0.20492116
57	0x3e41c205	0.18921669
58	0x40cad00f	6.337898
59	0xbf83241e	-1.0245397
60	0x3e4e95e5	0.20174368
61	0x3d1871ef	0.03721803
62	0x3de81538	0.11332172
63	0x3d7d802b	0.06188981
64	0xbf361806	-0.71130407
65	0x3e1c7c9a	0.15281907
66	0x3d67e3fb	0.056613903
67	0x3f148099	0.58008724
68	0xbebba02d	-0.36645642
69	0xbe8bb59b	-0.2728699
70	0x3e5f3f2a	0.21801439
71	0x3d7de775	0.061988313
72	0x3f22e4f0	0.6363058
73	0xbec1a599	-0.37821653
74	0xbe42c2ca	-0.19019619
75	0x3d8044af	0.062631
76	0x3ef536cc	0.4789337
77	0x3eaf8731	0.3428283
78	0x3e41122a	0.18854585
79	0xbf5d2750	-0.8638811
80	0xbf040203	-0.5156557
81	0x3eea488a	0.45758468
82	0x3d271948	0.040795594
83	0x3eabe39c	0.3357209
84	0x402a0300	2.656433
85	0xbf46450b	-0.774491
86	0x3ff87a24	1.9412274
87	0xbe98fdd8	-0.29881167
88	0xbfa2acc1	-1.270897
89	0xbfbf1997	-1.4929684
90	0xbe4e85ae	-0.20168182
91	0x3e706237	0.23474966
92	0x3e6d6bed	0.23185702
93	0x403c9d7e	2.9471126
94	0x40038da8	2.055521
95	0xbf7db450	-0.9910326
96	0x3ef619e8	0.4806664
97	0xbe45f76c	-0.19332665
98	0x40916a63	4.5442367
99	0xbf9f54dc	-1.2447772
100	0x3ffad8e8	1.9597445
101	0xbf2939e8	-0.6610398
102	0x3ec50349	0.3847907
103	0x3f27298c	0.6529777
104	0x3f44fd71	0.7694922
105	0x3fc28370	1.5196362
106	0xbac463ab	-0.0014983317
107	0x3f4c6cdf	0.79853624
108	0x3ee52c4b	0.44760355
109	0xc04cb541	-3.1985629
110	0xbecf59b9	-0.4049814
111	0x3edfe4d1	0.4372926
112	0x407defa5	3.9677517
113	0xbfe7ba69	-1.8103763
114	0x3f7413eb	0.9534289
115	0x3f5d8030	0.86523724
116	0x3f09c95f	0.5382289
117	0xbeb360b9	-0.3503473
118	0x3f8c2394	1.0948358
119	0x3fbaf36a	1.4605534
120	0x3d3333fe	0.043750755
121	0xc023a34d	-2.556842
122	0xbff6b6f1	-1.9274579
123	0x3e56babb	0.2096967
124	0xbe3633a9	-0.17793144
125	0xbdcc8b28	-0.099874794
126	0xbd3e3493	-0.046436857
127	0x3deaa91b	0.114580356
128	0x409698fa	4.706174
129	0xc014fbea	-2.3278756
130	0x3daf580f	0.08561718
131	0x3d6eb639	0.05827925
132	0x4086880d	4.2041078
133	0x40848dc1	4.142304
134	0xbf34a474	-0.70563436
135	0xbdcb96ec	-0.099408954
136	0x3e160b0a	0.14652649
137	0x3edcaee2	0.43102175
138	0x404e0f1c	3.2196722
139	0x3f50f385	0.8162158
140	0x3cd04387	0.025422825
141	0xc040231b	-3.0021427
142	0xbf8fd02f	-1.1235408
143	0x3b85fded	0.004089108
144	0xbe7f40fe	-0.24927136
145	0x3ea6fd00	0.326149
146	0xbe38e414	-0.18055755
147	0x3d8718d9	0.06596536
148	0x40521214	3.2823534
149	0xc0456491	-3.084263
150	0xbe57ff05	-0.21093376
151	0x3c10bde1	0.008834333
152	0x40aa47bd	5.321257
153	0x3fcc81fa	1.5977166
154	0x3f86916a	1.0513127
155	0x3e94279c	0.2893647
156	0xbe125578	-0.14290416
157	0x3ed67d30	0.41892385
158	0x4073a702	3.8070683
159	0xbf8d3fa2	-1.1035044
160	0x3cf973e2	0.030450765
161	0x3fa6f749	1.3044215
162	0xbf0e0732	-0.5547973
163	0x3e7a705f	0.24456929
164	0xbef33f37	-0.47509167
165	0x3e1c69e6	0.15274772
166	0xbfdb874a	-1.7150662
167	0x3f0020d0	0.5005007
168	0xbd582ccc	-0.052777097
169	0x3f62f65b	0.8865716
170	0xbf198d2a	-0.59981024
171	0x3f0ca2f5	0.5493615
172	0x3f8f21f6	1.1182239
173	0xbea9b6e1	-0.33147338
174	0x3d18112a	0.037125744
175	0xc0242f51	-2.565388
176	0x3faf4dd6	1.3695629
177	0xbed9a6da	-0.4251011
178	0x40c7958a	6.2370043
179	0xbfab886a	-1.3401005
180	0x3d8d1ca3	0.06890228
181	0x3f17c009	0.592774
182	0x3f8e62f4	1.1123948
183	0x3e0860bc	0.13318151
184	0xbeead8fd	-0.45868674
185	0x3dc5c634	0.09656945
186	0xbc5f3954	-0.013624508
187	0x3e10e1c0	0.14148617
188	0xc08138f9	-4.0382047
189	0x3fac9acb	1.3484739
190	0x3e4a050c	0.19728488
191	0xbd56d745	-0.05245139
192	0xc02781d3	-2.6172988
193	0xc069fdc1	-3.656113
194	0xbf58ffec	-0.84765506
195	0xbe816fb4	-0.25280535
196	0x3ce73058	0.028221294
197	0xbe206ed4	-0.15667278
198	0xc06d5fc6	-3.7089705
199	0xbf59be02	-0.85055554

bias f4 [10]
0	0xbe9d9e1a	-0.30784684
1	0x402c88f7	2.6958597
2	0xc01ab414	-2.417241
3	0xbffdc4cf	-1.9825686
4	0xc02f3fc6	-2.7382674
5	0xbff3d2a5	-1.9048659
6	0x3fba6b5b	1.4564012
7	0x3fb23cc4	1.3924794
8	0xc04150ea	-3.0205636
9	0xc0495795	-3.1459706

weight f4 [1, 10]
0	0xbfa20e7b	-1.2660669
1	0x3ec7ea4d	0.39045945
2	0x400b5f7e	2.1777034
3	0xbd8ede3a	-0.0697598
4	0x3fc01ff4	1.5009751
5	0x3f334dba	0.70040476
6	0xc0158480	-2.3362122
7	0x4015ccfe	2.3406367
8	0xc08dfa5d	-4.436812
9	0xc016adda	-2.354361

weight f4 [29, 10]
0	0x401745ca	2.3636346
1	0x3ffa5d29	1.955968
2	0x3ed2b12c	0.41150796
3	0xc0999d21	-4.800431
4	0x405c1830	3.4389763
5	0xc09829bb	-4.755094
6	0x3e0e560e	0.13900015
7	0xbf51d49b	-0.81965035
8	0x40236bbc	2.5534506
9	0x402816cb	2.6263912
10	0xc0a62813	-5.192392
11	0x4038c356	2.8869224
12	0x3f5f5146	0.8723339
13	0x3ffd0aa8	1.9768877
14	0x40b2ef53	5.5917144
15	0xbf8533b5	-1.0406405
16	0xc0705e04	-3.7557383
17	0xc08d1906	-4.4093046
18	0x3ffa4cc6	1.9554679
19	0x3fa451f7	1.2837514
20	0x4018dd2a	2.3884988
21	0xbf85e80f	-1.0461444
22	0xbf34b50c	-0.70588756
23	0xc0eeb42d	-7.459494
24	0xbf007284	-0.50174737
25	0x3f6c9de2	0.9242841
26	0x4122c8fe	10.17407
27	0x4030a800	2.760254
28	0xbf1091fe	-0.56472766
29	0xbfc987ca	-1.5744565
30	0xc0e5d6fa	-7.1824923
31	0xbf7c65c6	-0.98592794
32	0x3eeb6217	0.45973274
33	0xc0454d20	-3.0828323
34	0xbfd8fa9c	-1.695148
35	0x40d23e4a	6.5701036
36	0x4090da7b	4.52667
37	0xc06609be	-3.5943446
38	0xbe920773	-0.28521308
39	0xbf71bf95	-0.94432956
40	0x4118751f	9.528594
41	0xbffb1f94	-1.9619012
42	0x3ddf9d1c	0.10918638
43	0x4007ac5a	2.1198945
44	0xbf3c0c65	-0.7345641
45	0x4040f661	3.0150378
46	0x4019de22	2.404183
47	0x40ea46ad	7.3211274
48	0x3dededa0	0.11617589
49	0xbf3f49da	-0.74722064
50	0x40e84b40	7.259186
51	0x3e35aa91	0.17740847
52	0xc0108c72	-2.258572
53	0x40b3795c	5.6085644
54	0xc110901e	-9.035185
55	0xc00fbc85	-2.2458813
56	0xc027397f	-2.6128843
57	0xbf7b2bd0	-0.9811373
58	0x3f383285	0.71952087
59	0x3fc05f3e	1.5029066
60	0x40a6d3ef	5.213371
61	0xbeed8192	-0.46387917
62	0xbfb5b9b9	-1.4197303
63	0xbf8c2269	-1.0948001
64	0xc0a22aaf	-5.0677104
65	0xc11c66e4	-9.77512
66	0x40faa949	7.8331647
67	0xbf4bfb1e	-0.7968005
68	0x3d92a3fc	0.07160184
69	0xbfc37e45	-1.5272909
70	0x404272d9	3.0382597
71	0xc03445f5	-2.8167698
72	0xbfd4641a	-1.6593049
73	0x413b8181	11.719117
74	0xbf3acdb7	-0.72970146
75	0x41100bd6	9.00289
76	0xbea78c88	-0.32724404
77	0x3fa55b47	1.2918481
78	0x3eaefacd	0.3417572
79	0x3df21342	0.118200794
80	0xc05401dc	-3.3126135
81	0x3ebcb75e	0.36858648
82	0xbf9464ae	-1.1593225
83	0xbe2d46bb	-0.16921513
84	0xbfb52a1d	-1.4153477
85	0xc054322d	-3.3155625
86	0x41024a6e	8.143171
87	0xc1091c70	-8.569443
88	0x3dd402ae	0.103520736
89	0xbf98e84c	-1.1945891
90	0xc0ad4aa3	-5.415361
91	0x3e9b1ef7	0.30297062
92	0xbfbd723f	-1.480049
93	0x40aa3b34	5.319727
94	0xc09765f4	-4.7311954
95	0xc0627234	-3.5382204
96	0xc0b6b856	-5.710002
97	0x40d8598a	6.76093
98	0x4029a07a	2.6504197
99	0x3fc22ae4	1.5169339
100	0x410bbe96	8.73403
101	0x3f92fa3f	1.1482619
102	0xc05a1b80	-3.4079285
103	0xc0b55fba	-5.6679354
104	0x3e997bf9	0.29977396
105	0x413ecedb	11.925502
106	0x40a60933	5.188623
107	0x401c8b73	2.4460113
108	0xbf9657e9	-1.1745578
109	0xc01f6882	-2.4907537
110	0xbed3cb38	-0.4136598
111	0xbfb8d834	-1.444098
112	0xbca0e7de	-0.019641813
113	0xc0f81d99	-7.753613
114	0x4012d3c9	2.2941763
115	0x410a898c	8.658581
116	0x3fdedf1f	1.7411841
117	0x40f96b34	7.7943363
118	0xbf6c0dd8	-0.92208624
119	0x3c158ec4	0.009128276
120	0xbfdfe182	-1.7490695
121	0xbee87027	-0.45398065
122	0x3ee02250	0.43776178
123	0xc078ae91	-3.8856547
124	0xbf881532	-1.0631468
125	0xc08e46a5	-4.4461236
126	0x406d633d	3.709182
127	0x41170134	9.437794
128	0xbf43bf5c	-0.76463866
129	0xc00dfb8a	-2.2184777
130	0xc0e61651	-7.190224
131	0xbfa9cc47	-1.3265465
132	0x3fdafc12	1.7108176
133	0x40e2dbf0	7.089348
134	0xc087b501	-4.240845
135	0xc0163715	-2.347112
136	0x40deed77	6.9664874
137	0x4097947b	4.736875
138	0x3f9bb826	1.2165573
139	0x3f2776ff	0.6541595
140	0xc0860172	-4.1876764
141	0xbfa164a6	-1.260884
142	0xbf3558df	-0.7083873
143	0x409305c1	4.5944524
144	0x3e63d48c	0.22249049
145	0x40fbc2bb	7.867521
146	0xc000c462	-2.0119863
147	0x40dea230	6.9572983
148	0x3f3befe5	0.73412925
149	0x3ec964e8	0.39334798
150	0xc10fd30a	-8.989023
151	0x3fdbbe39	1.7167426
152	0x3bb4572e	0.0055035567
153	0xc0c4beef	-6.1483073
154	0xc0073909	-2.1128561
155	0xbfb4b73d	-1.411842
156	0xc05e4411	-3.4729044
157	0x4015eba3	2.3425071
158	0x3e511538	0.2041825
159	0x3f1f4ba2	0.6222478
160	0xbf2fcb3c	-0.68669486
161	0xbfd0f1c0	-1.6323776
162	0xbf3d1ca6	-0.7387184
163	0x410e8007	8.906257
164	0xc0547c63	-3.320092
165	0xc021ec73	-2.5300567
166	0x40f5f7bc	7.686491
167	0xc0986da2	-4.763383
168	0x3e021817	0.12704502
169	0xbf1dce53	-0.6164295
170	0x40948b97	4.64204
171	0xc0027b19	-2.0387633
172	0xbf356820	-0.7086201
173	0x41459939	12.349908
174	0xc035700d	-2.834964
175	0xbcbcebab	-0.023061594
176	0xc03d4869	-2.9575446
177	0x411f870e	9.970472
178	0x3da1aff5	0.07894889
179	0xbf34fe7c	-0.7070081
180	0xbff9cf4e	-1.9516389
181	0x3d135aee	0.03597539
182	0xbed82d47	-0.42222044
183	0x405b52c6	3.426927
184	0xbfc2d2ce	-1.5220582
185	0x40d5ebb9	6.6850247
186	0x412283e4	10.1572
187	0x402b4466	2.6760497
188	0xbe58d4f6	-0.21174988
189	0x3efbcd5c	0.49180114
190	0x4075e46e	3.8420672
191	0xbfda7bf5	-1.7069079
192	0xbfd99562	-1.6998713
193	0x3f942e84	1.1576695
194	0xbf64d005	-0.8937991
195	0x4105f5a6	8.372473
196	0x40526ff9	3.2880843
197	0xc0cdd5c2	-6.4323435
198	0xbe2a9e95	-0.16662057
199	0xbcd42496	-0.025896352
200	0xc0cd4e63	-6.4158187
201	0xc02184c9	-2.5237296
202	0xbf8aa4ba	-1.083152
203	0x40deb513	6.959604
204	0x3ff424f4	1.9073777
205	0x41026b28	8.151161
206	0xbfc7d4ef	-1.5611857
207	0xc08dbe1e	-4.4294577
208	0x3fe00562	1.7501643
209	0x3f0d5c7b	0.5521924
210	0x410708f4	8.439686
211	0x3fc6137d	1.5474697
212	0xbfc5218c	-1.5400863
213	0xc08804b9	-4.2505765
214	0xc10d6b89	-8.838754
215	0xc081a5c8	-4.051487
216	0xbfedf3fa	-1.8590081
217	0x40b5dab4	5.682947
218	0x3f602bd4	0.87566876
219	0x400116cb	2.0170162
220	0x40a5b9f5	5.17895
221	0xc00443a6	-2.066629
222	0xbf56f650	-0.83969593
223	0x40c5afcc	6.1777096
224	0xc0d3bbb0	-6.616661
225	0xc1175c04	-9.459965
226	0x40ee8e5b	7.4548774
227	0x41013f52	8.077959
228	0x3fbf3c66	1.4940307
229	0xbf2fb974	-0.68642354
230	0x3f3d40c5	0.73926955
231	0xc040e031	-3.0136836
232	0x3fc2f68e	1.5231493
233	0x4004736f	2.0695455
234	0x3fb775c5	1.4332815
235	0xc0e10fa0	-7.0331573
236	0xc06c8e82	-3.696198
237	0x40113d7b	2.2693775
238	0xbe1c167c	-0.15242952
239	0xbfc7b197	-1.5601071
240	0xc10fd5a2	-8.989656
241	0xbf4ea4c8	-0.80720186
242	0x3f8f146b	1.1178106
243	0xc0932010	-4.597664
244	0xc09e8aea	-4.9544573
245	0x40379e3f	2.8690336
246	0x40f60247	7.687778
247	0x40e0dc14	7.026865
248	0xbf6681a2	-0.90041554
249	0xbfa1ac97	-1.2630795
250	0x3faed22d	1.365789
251	0x40602f8f	3.5029027
252	0xbe79c565	-0.24391706
253	0xc031380a	-2.7690454
254	0x3f8d088d	1.1018234
255	0x4099db9d	4.8080583

bias f4 [29]
0	0xbf7d2e41	-0.988987
1	0x409dca31	4.9309316
2	0xc01b3544	-2.425126
3	0xbee5d4ee	-0.44889015
4	0xbf9c18ce	-1.219507
5	0x3f00f5f8	0.5037532
6	0xc00a4bc3	-2.1608741
7	0xc087129c	-4.2210217
8	0xbef74c92	-0.48300606
9	0xbfb6d666	-1.4284179
10	0xc0e05bba	-7.011197
11	0xc0afb431	-5.490746
12	0x3f8898ea	1.0671666
13	0x3e1ed23a	0.15509883
14	0x3f06cb92	0.52654374
15	0xbe94dcf7	-0.29074833
16	0xbf529f8b	-0.82274693
17	0xc0e61755	-7.190348
18	0x3fdbf790	1.7184925
19	0xbfc3adcf	-1.5287417
20	0xc000ebd2	-2.0143933
21	0xc02929ae	-2.643169
22	0xc0b54aca	-5.6653795
23	0x3f9db2e5	1.2320219
24	0xc0a4855a	-5.1412783
25	0x409bffc7	4.874973
26	0xc11ced05	-9.807866
27	0xc1241b74	-10.256702
28	0x3f9acdfe	1.2094114
