notes/cs 583 tian han/CS583-past years/CS583/Assignment 2/h3data/checkpoints/h10-bs16/encoder.pt (torch, 6683 bytes, 5 tensors)

weight f4 [29, 10]
000000 0c f4 1b 3d 0f fd 13 3d b2 b8 b9 bd c7 28 a6 bd
       0.038074538 0.036130007 -0.09068431 -0.081132464
000010 9b d4 1d 40 bb 59 8f 3f 69 db 26 3e d8 ce e9 be
       2.4661014 1.1199259 0.16294636 -0.45665622
000020 ae ed f6 3f ce ce 8d bf 57 4e cf 3d 10 cc c6 be
       1.9291284 -1.1078737 0.10122364 -0.38827562
000030 a9 6c 54 3e 96 bd ff 3c 21 14 11 bf 68 73 8a 3e
       0.20744576 0.031218331 -0.5667134 0.27041173
000040 14 c1 72 3e 51 06 61 3c 19 7a f1 3e 1e 6d 10 bf
       0.23706466 0.013734416 0.47163466 -0.564165
000050 a2 06 f3 bd 9d 76 24 3d 17 3c fb be f5 45 50 3c
       -0.118664995 0.04015218 -0.49069282 0.012711992
000060 b8 49 17 3f 64 d7 98 3e 0f d2 83 be da 9c 57 3e
       0.5909686 0.2985183 -0.257462 0.21055928
000070 cf d1 85 be 98 3b 8d 3f ca 4b 19 3d 4b 0f 93 3e
       -0.26136634 1.1033812 0.037425794 0.28722605
000080 fc 93 3f be 16 45 d9 3e 27 6b db 3e 2a 7c 9f 3e
       -0.18708795 0.4243552 0.42855188 0.31149417
000090 d5 f5 12 be 6d 6b af 3e 93 f7 e9 be 14 cc f9 3c
       -0.1435159 0.34261647 -0.45696697 0.03049282
0000a0 71 3b 33 3e 44 b0 28 be 51 e0 05 bc eb 21 ef be
       0.17503144 -0.1647349 -0.008171157 -0.46705565
0000b0 7f a5 92 3e 51 05 ce be f3 dc 86 3e 89 00 a5 be
       0.28641888 -0.4023843 0.26340446 -0.3222697
0000c0 a7 80 7a be b8 83 26 3f e0 66 db 3d 83 2e cd bd
       -0.2446314 0.65044737 0.10712981 -0.10018637
0000d0 41 e1 30 3e 26 ff dd be 6b 17 76 be 53 a7 db be
       0.17273428 -0.43358725 -0.24032371 -0.42901096
0000e0 cc 30 8d 3b 55 d5 91 3e 97 61 a5 3e 8f 59 f4 be
       0.0043087956 0.28483072 0.32301018 -0.47724578
0000f0 b7 81 36 be 31 e6 3d 3d ab dd cf bc 42 85 06 bf
       -0.1782292 0.046362106 -0.025374254 -0.52547085
000100 55 cf c0 3d 01 c9 ef 3e 78 70 ef bd 95 03 e9 3e
       0.094145454 0.4683304 -0.116913736 0.45510545
000110 a6 9a 39 3e be f0 68 3f b0 49 5a be be af 46 bc
       0.181254 0.90992343 -0.21317172 -0.012126861
000120 f5 05 d1 3e 94 26 04 bf 88 39 0f be 00 41 7c be
       0.40824857 -0.51621366 -0.1398679 -0.2463417
000130 3e b4 98 3e 59 a8 6a be 25 5f 05 bf 6e 24 92 3c
       0.29825014 -0.22915782 -0.52098304 0.017839637
000140 c0 af b4 3d e7 eb 88 be b1 d4 03 3e 64 47 94 3d
       0.08822584 -0.2674248 0.12874104 0.07240179
000150 05 fc 57 3d f1 96 22 3f ff 03 a7 3e d4 67 d2 3e
       0.05273058 0.6351157 0.32620236 0.4109484
000160 19 7b da bd e9 78 35 3f d0 4c f4 bd 60 dc 68 bd
       -0.1066801 0.7088762 -0.11928713 -0.05685079
000170 7a 00 78 bd e4 2b 6a 3e da fb 36 bf 45 75 13 be
       -0.06054733 0.22868305 -0.71478045 -0.14400204
000180 85 9f ee bd 53 93 21 be 8a 5c f4 3e 17 8b 91 be
       -0.1165152 -0.15778856 0.47726852 -0.2842643
000190 f9 01 a9 3e 50 f2 50 bf bf d9 17 bf 84 cc c8 be
       0.33009318 -0.8161974 -0.5931663 -0.39218533
0001a0 3c a0 5a 3f 54 40 1f 3e fe 22 b8 bd 1b 7e 2b 3f
       0.8540075 0.15551883 -0.08991049 0.66989297
0001b0 5b 14 bf bf a3 9d 14 3f bd f9 ab 3f 89 80 3c bc
       -1.4928087 0.58053035 1.3435589 -0.011505255
0001c0 83 7d 6a bf b5 8d bf 3e 64 95 10 3f fd 01 9d be
       -0.91597766 0.374128 0.5647795 -0.3066558
0001d0 2f 57 8e 3e 4a 20 f4 3e 6a 5d 3f be 30 cb 5d 3f
       0.2780089 0.47680885 -0.18687978 0.86638165
0001e0 10 a2 0e 3d 7d fd 8d 3d 13 8a 63 be a3 9a 48 3e
       0.034822524 0.06933115 -0.2222064 0.19590239
0001f0 02 07 ff 3d 4f 89 69 bc d0 89 14 3d 14 5d 13 be
       0.124525085 -0.014253928 0.03626424 -0.14390975
000200 0d 02 17 3e 87 b1 46 3f 31 ef 78 3c 69 0c ef 3e
       0.14746876 0.77614635 0.015193746 0.46689156
000210 af c2 b2 3e b1 a1 32 3e c9 26 54 be 2c b0 99 3e
       0.34914157 0.17444493 -0.2071792 0.3001722
000220 70 54 0b bf f7 5f 2b be 91 cb 1c bd 55 1d 04 3f
       -0.54425716 -0.16735826 -0.038280074 0.5160726
000230 de 21 8e 3e a1 1c f6 3d 7f d9 4a bd 5d b8 43 3e
       0.27760214 0.12017179 -0.049523827 0.19113298
000240 6f 7f 56 3d 8a 4c 77 be 87 37 9b 3e 41 d9 1d bf
       0.052367624 -0.24150291 0.30315802 -0.6165963
000250 ca 49 a6 be a0 c7 b4 3d a0 78 aa 3d d3 1a e3 3d
       -0.32478172 0.08827138 0.08323789 0.11089101
000260 52 35 14 bf 98 14 aa 3e 4c e8 24 be c8 a5 86 bd
       -0.5789386 0.33218837 -0.16104239 -0.06574589
000270 d5 0d 67 3e 5a 6e 52 3e 6c c2 e4 3e f0 b8 64 be
       0.2256387 0.20549908 0.44679582 -0.22336173
000280 fb 29 03 be 68 10 f2 bc b3 3f 25 3f 81 dc 5c be
       -0.12808983 -0.029548839 0.6455032 -0.2156849
000290 03 c9 c5 bc 2f f2 ae 3e 25 bf 44 be 06 be 0b 3e
       -0.024143701 0.34169146 -0.19213541 0.13646707
0002a0 d8 33 08 be 68 1b f7 3e d7 c1 29 bd c3 94 15 bd
       -0.13301027 0.48263097 -0.041444626 -0.036518823
0002b0 c4 74 17 3d 28 11 30 bf c7 69 be bf 6b 2f fc 3e
       0.03697659 -0.6877618 -1.4876031 0.49254927
0002c0 3c a4 9c 3e d2 74 89 bf 7b c4 71 be 92 52 4a 3f
       0.3059405 -1.0738776 -0.23610108 0.7903224
0002d0 71 7e ae 3e a1 32 eb 3d a8 06 1d 3e 61 25 fe bc
       0.34080842 0.11484266 0.1533457 -0.031023683
0002e0 28 7b 66 3e 76 ee 53 3e 66 d0 97 be 10 e2 e9 bc
       0.22507918 0.20696434 -0.29651183 -0.028550178
0002f0 8a 3a ee be c1 f4 0a 3f 80 ad 18 bf 61 ae fd be
       -0.46529037 0.54279715 -0.5963974 -0.49547103
000300 18 b5 9f bd d3 8c db bd 33 af 9c 3e 0e 84 09 be
       -0.07798213 -0.107202195 0.30602416 -0.13429281
000310 09 97 63 bb f7 eb ea 3e 8b c8 19 bf e9 04 13 bd
       -0.0034727475 0.45883152 -0.6007163 -0.035893355
000320 be 51 c6 be 1f bf bc 3e bd 22 93 3e 35 b5 04 3e
       -0.3873424 0.36864564 0.2873744 0.1295975
000330 23 80 23 3e a1 4f 76 3c 04 af 5c 3d 33 48 97 bd
       0.15966849 0.015033633 0.053877845 -0.07386818
000340 51 2c e7 be 16 c2 b9 be f3 90 a1 3e 84 41 55 3d
       -0.45150998 -0.36280888 0.315559 0.052064434
000350 96 a2 2d bf 5b 16 a3 be 19 ed c1 bc d5 4c 2f bf
       -0.6782621 -0.31852993 -0.023672627 -0.6847661
000360 f0 54 bb be 6c c9 91 3e 22 65 0b 3f 73 e1 ae be
       -0.3658824 0.28473985 0.5445119 -0.3415638
000370 6b b8 01 be 6d 54 c3 3e cb 26 53 3e 43 2b e2 be
       -0.12668006 0.3815035 0.20620267 -0.4417363
000380 41 97 19 be 37 09 68 3e 82 ed 09 bf fd 8b 88 be
       -0.14999105 0.22659765 -0.53878033 -0.26669303
000390 66 13 4a 3e 60 93 41 3f 47 70 1a bf 1b 09 ba 3d
       0.19733962 0.756155 -0.6032757 0.09083768
0003a0 44 9e e0 bd bc 09 8b be c0 34 25 be f7 0f 0c 3f
       -0.10967687 -0.27155864 -0.16133404 0.5471186
0003b0 7e b4 0a be 87 72 18 bf 57 5f 46 3e 35 15 db 3e
       -0.13545415 -0.59549755 0.19372307 0.42789617
0003c0 07 e7 cb 3e 5a 03 02 3f ad 81 c4 be 71 8d bf 3e
       0.39824697 0.50786364 -0.38380185 0.374126
0003d0 ab a7 a8 3e cf d0 84 be 41 f0 14 bf 04 fb a9 3e
       0.3294042 -0.25940558 -0.581791 0.33199322
0003e0 4b 10 0d be fe dd 18 3e 1d 46 a5 3d 1c 22 c8 be
       -0.13775747 0.14928433 0.08070014 -0.39088523
0003f0 26 8c ee be bf 51 3e 3e 68 18 e9 3e 36 8d 13 bf
       -0.465913 0.18585871 0.45526433 -0.57637346

weight_ih f4 [30, 10]
000000 c6 bd c7 bf 14 d4 35 3e 35 6f 74 be 74 cf e4 3f
       -1.5604789 0.17756683 -0.23870547 1.787581
000010 e2 a8 06 3f 65 b5 97 bf c3 77 ae bf a8 f2 0c 3f
       0.52601445 -1.1852232 -1.3630298 0.55057764
000020 b0 06 12 3f 0d 4b 26 3e ca e7 11 40 65 07 6c 3f
       0.57041454 0.16239567 2.2797723 0.92198783
000030 64 37 c0 be b4 7a f6 be e5 06 a9 3f b2 0a 91 3d
       -0.3754226 -0.4814049 1.3205229 0.07082118
000040 7b 2a c3 bf 3d 97 88 3d 01 3b 89 bc a8 71 bc 3d
       -1.5247339 0.066694714 -0.016751768 0.09201366
000050 7c 01 aa bf 17 ac 84 bf 7f e9 7a bf b5 43 1f 40
       -1.3281703 -1.0365018 -0.98012537 2.4885075
000060 8c 5a 1e 40 2f ed 54 bf e9 fc 30 c0 59 86 ca bf
       2.4742765 -0.83174413 -2.7654364 -1.582225
000070 c6 b8 f9 be 23 db 9d 3f 9b be 09 3e 08 80 5b be
       -0.48773783 1.23325 0.13451616 -0.21435559
000080 8d 08 30 bf 78 aa 27 be 3c 2d 9f 3e 9b e1 a6 3f
       -0.6876305 -0.16373622 0.310892 1.3037599
000090 be 93 8e 3e c7 20 85 be 8c 67 14 bf 26 96 22 3e
       0.27847093 -0.2600157 -0.579705 0.1587759
0000a0 8e 9a be be fb 24 10 c0 91 f7 a9 bf bd 17 d8 be
       -0.3722729 -2.252257 -1.3278676 -0.4220561
0000b0 35 7b 2d 40 08 cd 21 c0 04 d0 8a bf 7e 0c 2b c0
       2.710645 -2.528139 -1.0844731 -2.6726375
0000c0 e7 2a 44 c0 f1 49 0d c0 bc 9d 5e bf 4f 6e 8a bf
       -3.0651186 -2.207638 -0.86959434 -1.0814914
0000d0 e4 b0 c7 be ad 56 66 bd 60 e1 7a bf 29 c4 71 bd
       -0.39002144 -0.056235004 -0.98000145 -0.059024964
0000e0 83 73 25 3d 26 7a 0c 3f 46 74 67 3e 1b fd 95 3e
       0.040393364 0.54873884 0.22602949 0.29294667
0000f0 58 46 cd be e0 55 9c bf 7b a4 17 40 30 2d bf 3f
       -0.4009273 -1.2213707 2.369414 1.4935665
000100 fb 1f ee be 9e f4 66 3f 83 18 e5 bc 21 fc 19 c0
       -0.46508774 0.90217006 -0.02796579 -2.4060137
000110 4e b2 23 3e cb 21 cf be 40 e9 8b 3f 0a 09 65 3e
       0.15985987 -0.4045547 1.0930557 0.2236673
000120 51 14 ed be a0 62 41 bf 0d 23 2e bc 40 e3 a0 3f
       -0.46304563 -0.75541115 -0.010628474 1.2569351
000130 c1 64 29 3f 54 08 73 3f b4 11 a4 3f 9e 61 c0 bf
       0.66169363 0.9493458 1.2817903 -1.502979
000140 51 bf 78 3f 13 17 a5 3f df 74 45 3e 4b c5 56 3f
       0.97166926 1.2897667 0.19282864 0.83894795
000150 c7 0b 14 3e 72 ee 02 bf ed 3f 9b be 28 2b 3c 3f
       0.14457618 -0.5114509 -0.3032221 0.7350335
000160 2c e8 f1 be dd ce 1a bf 74 27 7d be 74 a0 a3 3e
       -0.47247446 -0.604719 -0.24722081 0.31958354
000170 5b b1 90 3e 88 c1 b9 be 62 c6 3e bf 81 52 f2 bf
       0.2826031 -0.36280465 -0.7452146 -1.8931428
000180 52 c7 68 3f 3b 2f 00 bf fa 00 ef bf 3d 44 51 40
       0.9092914 -0.5007207 -1.8672173 3.26979
000190 83 2d b4 bf 84 da 0f 3f 4a 99 4c 3d c0 49 11 3f
       -1.4076389 0.56192803 0.049950875 0.5675316
0001a0 78 5c 61 3e 07 5f 55 bf 32 94 a4 bf a1 32 c0 3d
       0.2200793 -0.83348125 -1.2857726 0.09384657
0001b0 2d 76 8e 3e a8 9f 91 3d 45 a9 98 3f 31 18 a5 bf
       0.27824536 0.0711053 1.1926657 -1.2898008
0001c0 59 be b5 3f 77 c9 14 3f 4d b0 62 3e 36 77 36 be
       1.4198714 0.5811991 0.22137566 -0.17818913
0001d0 e1 3c 42 bf 38 91 53 be 30 b9 8a be 7f 97 20 bf
       -0.75874144 -0.20660865 -0.27094412 -0.62731165
0001e0 24 67 b2 3c b4 24 b4 3e 60 f3 c1 bd 45 75 ae be
       0.021777697 0.35184252 -0.09470248 -0.34073845
0001f0 f6 00 e4 3e f3 09 50 3f 63 3e ef bd f2 6f 30 bd
       0.44531983 0.8126518 -0.11681821 -0.04307551
000200 7f 90 fe bc 4d 8b 46 3e 3b 4d f9 3c 0f c4 4c bc
       -0.03107476 0.19389077 0.030432334 -0.012497916
000210 d8 3e bf bd d7 68 de bd d0 51 0c bf 00 52 89 be
       -0.09338158 -0.1085984 -0.54812336 -0.26820374
000220 8f fe 9a 3c 8f 0d 65 3e 92 6f eb be ae 03 be 3c
       0.018920211 0.22368453 -0.4598356 0.023195114
000230 5b 7c c9 3d 47 ea c9 be 60 a5 56 3e 82 17 81 3e
       0.09838172 -0.39436552 0.20961523 0.25213248
000240 6c fe 40 bf 5e e7 2f be 9a 4a 1c 3d d6 c2 b0 3e
       -0.75388217 -0.17178103 0.038157083 0.34523648
000250 88 cc 2d bf 97 b0 5c 3e c4 8e 59 bf 51 80 53 bf
       -0.67890215 0.21551739 -0.8498347 -0.8261767
000260 57 97 4c 3e a1 0e 52 3f 62 47 77 bf 91 9d 14 bf
       0.19979607 0.8205357 -0.96593297 -0.5805293
000270 c3 11 a2 3e 86 d6 2b 3f 19 07 b9 3c 50 9b 80 3f
       0.31654176 0.6712421 0.022586392 1.0047398
000280 0f d2 26 bf 18 15 db 3c b2 0d 7a 3e ca 93 b9 3f
       -0.65164274 0.026743457 0.24419287 1.4498227
000290 b7 0f a1 3c bd d7 4f 3f ed 03 dd 3e 70 c2 b5 bf
       0.019660814 0.81188565 0.43167058 -1.4199963
0002a0 f7 7f 86 be b5 44 be be 56 b7 16 3f b0 1c 7b 3f
       -0.26269504 -0.37161794 0.588735 0.9809065
0002b0 b9 18 79 3e f3 cb 55 bf d2 5e e1 3d cb 68 c6 3e
       0.24325837 -0.83514327 0.11004414 0.38751826
0002c0 1f 45 15 3f 2f 46 f4 3e ca cf e7 3e 1e 9a f9 be
       0.58308595 0.47709796 0.45275718 -0.48750395
0002d0 0f 9c be bc dc 6b 3d 3b f9 4b 84 bd 26 06 81 bd
       -0.023267774 0.00289034 -0.06459803 -0.06300001
0002e0 eb eb e5 3d 5c 7a 00 3d 2a 1f 57 3d 7f 99 c6 bd
       0.112266384 0.03136669 0.052519955 -0.09697246
0002f0 b4 42 a4 be 01 47 04 3e 27 db 05 3e ee 7c c9 3d
       -0.3208214 0.12917711 0.13071881 0.098382816
000300 ef 6a b8 bd b1 02 0f be d5 69 1e bd b4 22 ad be
       -0.09004771 -0.1396587 -0.038675148 -0.3381554
000310 d4 03 b4 bc 8f c0 f3 3e ce 64 b8 bd 6c 14 1f bd
       -0.021974482 0.47607848 -0.09003602 -0.038837835
000320 cf e0 6e bd 48 ca 44 be e1 1b f0 3e c7 6e 8c 3e
       -0.058319863 -0.19217789 0.4689627 0.27428266
000330 06 6b c0 3e 7a 35 a3 3f 4f 82 cc 3d 90 6a c1 3e
       0.37581652 1.2750695 0.09985792 0.37776613
000340 80 8b ac 3f ac b9 bf be 28 18 7e be ba 9c fe bc
       1.3480072 -0.37446344 -0.24813902 -0.031080592
000350 e8 5f 13 3f 24 38 a5 be 8a 53 ad be 65 2b 8e 3e
       0.57568216 -0.32269394 -0.33852798 0.27767482
000360 52 d6 99 3e d0 69 1d be ad 06 e2 be 99 bb 5f bf
       0.30046326 -0.15372396 -0.44145718 -0.87395626
000370 77 65 cf bd a5 1f 3d bf 4e 61 c0 bf 1f 1f 1a be
       -0.10126775 -0.7387641 -1.5029695 -0.15050934
000380 43 e3 3f bf 42 4b c1 be f2 fb b9 be 24 e9 62 3e
       -0.7495615 -0.3775273 -0.36325032 0.22159249
000390 4b c3 a2 3f 5a d6 8c bf 29 30 ee bd 3f af 1b 3d
       1.2715849 -1.1002915 -0.116302796 0.038008925
0003a0 85 44 57 3f 21 ea 56 3f 31 49 2f bf 12 87 4f bf
       0.8408893 0.83951 -0.68471056 -0.81065476
0003b0 e5 86 f1 be 4a a2 fd 3e 08 95 06 bf f4 08 d3 3e
       -0.4717323 0.4953788 -0.52571154 0.41217768
0003c0 7e 11 e4 3e ab 0f 08 be 2c 61 8f 3e 3a a4 92 bd
       0.44544595 -0.13287227 0.28003824 -0.0716023
0003d0 b9 38 a5 3f 00 e1 ae 3d 8e b9 49 3f bd af d2 bf
       1.2907935 0.08539009 0.7879876 -1.6459881
0003e0 67 98 af be 63 3c 73 3e c6 fc 64 3e bc 6c 04 3f
       -0.3429596 0.23753504 0.2236205 0.51728415
0003f0 5f 2d 1e 3f 2e 44 76 3f 42 bd c3 be e4 60 6b be
       0.6178798 0.96197784 -0.3823033 -0.2298618

weight_hh f4 [30, 10]
000000 d7 3b 36 bf 24 ad 40 bf d0 aa e8 3f 99 b5 44 bf
       -0.7118506 -0.7526419 1.8177128 -0.76839596
000010 ca 78 1b 3f 88 85 f8 bf 07 28 89 be 6a d6 67 3f
       0.60731184 -1.941575 -0.2678835 0.90561545
000020 a7 5c 94 3e 91 fd 51 bf 12 a0 1c 3f a6 e7 cc 3f
       0.28976938 -0.82027537 0.6118175 1.6008193
000030 0d 86 34 3e de 8d d3 bf ac ad 87 3f f7 bb 52 bf
       0.17629261 -1.652767 1.0599875 -0.8231806
000040 62 7f 83 3e 37 fa b9 be 3d 6e 33 be 53 d4 31 bf
       0.25683123 -0.3632371 -0.17522521 -0.69464606
000050 10 1b d3 3f ae c4 60 3e c0 52 92 3f a3 d5 0e bf
       1.6492634 0.21950027 1.1431503 -0.55794734
000060 53 eb 54 3f f8 3f 1a bf d0 80 a9 be e6 52 a8 3c
       0.83171576 -0.6025386 -0.3310609 0.020547342
000070 82 fa 36 c0 f5 b7 56 40 dc 9c b5 3f 2d e9 21 bf
       -2.8590398 3.3549778 1.4188495 -0.63246423
000080 df ae 23 bf b5 69 c7 bf 8e e0 67 40 00 1f ca bf
       -0.6393871 -1.5579134 3.6230807 -1.579071
000090 27 3c 6e be c1 2a 28 3f 02 b9 79 c0 cb a2 b8 40
       -0.23265134 0.6569024 -3.901917 5.769872
0000a0 14 55 68 3f 08 8e 25 bf 7d c7 b2 40 d9 a8 3c bf
       0.9075482 -0.6466985 5.5868516 -0.7369514
0000b0 9a 73 62 3f af 82 2a bf 93 a3 85 bf 67 64 3b c0
       0.88457644 -0.6660566 -1.0440544 -2.928003
0000c0 fb 57 89 3f 04 24 8b 3e 37 d6 52 3e b5 96 c6 3e
       1.0729975 0.27175915 0.20589529 0.38786855
0000d0 4c f3 62 3d 02 d2 69 bf 0b 65 2b be ea 5c 65 3f
       0.055407807 -0.9133607 -0.16737764 0.895949
0000e0 63 34 63 3e ca 47 3d 3d 75 78 cc 3e a9 df 0e 3f
       0.22187953 0.04621104 0.3993565 0.5581003
0000f0 74 be 5f bd 77 92 64 bd bf 59 e8 3d c3 15 bc bf
       -0.05462499 -0.055803742 0.11345243 -1.4694141
000100 4a d5 d1 3e b9 2e 3b 3e c3 5b e7 3f 04 85 4c bf
       0.4098304 0.18279542 1.8074878 -0.79890466
000110 0c 21 62 3d de 34 2d bf 47 2f 89 3e e2 f4 9a be
       0.055207297 -0.67658794 0.26793882 -0.30264956
000120 5d 32 a0 be a6 96 98 bf 3e 3a 21 3e e4 fc ec be
       -0.31288424 -1.1920974 0.15744874 -0.4628669
000130 8c 4d 21 bf d4 da e8 be 4d 91 04 bf 5b 33 01 bf
       -0.6300895 -0.45479453 -0.5178421 -0.5046899
000140 1c 84 aa bf 79 e8 0d bf 9c fc 69 3f f0 98 06 c0
       -1.3321567 -0.5543285 0.91401076 -2.1030846
000150 32 d8 55 be e2 4e 92 c0 e5 19 90 3f 90 65 07 40
       -0.20883253 -4.5721292 1.1257902 2.115574
000160 92 5e ad c0 c9 72 e1 40 81 02 0e 3f 71 32 14 3d
       -5.417794 7.045262 0.5547257 0.036180917
000170 f9 81 93 c0 76 9b 99 40 52 fa 80 c0 c2 fb ab be
       -4.609616 4.800227 -4.0305567 -0.33590513
000180 0c 44 84 be 34 3c 52 3e cd 0c 94 3e d0 3a c9 40
       -0.25833166 0.20530778 0.28916016 6.2884293
000190 2c 06 1a be 91 f8 4e be 06 30 0e 3f b5 b6 57 be
       -0.15041417 -0.20212008 0.5554203 -0.21065791
0001a0 49 d2 98 bf 9d 4f bb be b8 9a e4 3c 56 7c 87 3e
       -1.1939174 -0.36584178 0.027905807 0.26462048
0001b0 59 78 9e 3e ee 9b 02 bf a5 c6 38 bf 16 6d bb 3f
       0.30951193 -0.5101918 -0.7217811 1.4642665
0001c0 36 d9 9c 3f 85 1c b6 bf 2a 3b ba be 8a 5a cc be
       1.2253788 -1.4227453 -0.36373264 -0.39912826
0001d0 e9 cb 6c 3f 7a 76 94 bd 20 97 0f be c1 f8 80 bf
       0.9249864 -0.0724916 -0.14022493 -1.0075914
0001e0 a5 b3 a8 3d ac c7 18 bd 6e 21 2d 3f 78 18 83 3e
       0.082373895 -0.037299797 0.67629135 0.25604606
0001f0 21 54 45 3e d3 65 f7 3e e1 6b 84 bc 9b dc 0a 3e
       0.19270374 0.48319873 -0.016164722 0.13560717
000200 d8 15 a8 3f 1d 52 16 3e 62 ea b2 3e c9 3a 1c be
       1.3131666 0.14679761 0.34944445 -0.152568
000210 93 e3 c1 3e a9 f0 2f 3f 07 58 74 3f f1 42 fe 3d
       0.37868938 0.68726593 0.9544682 0.12415112
000220 8b 88 09 be e6 10 46 3e ad ad 18 3f be 44 d5 3f
       -0.13430993 0.19342384 0.5964001 1.6661603
000230 b9 a2 7b 3e b0 47 0f 3e 86 0f c7 3e f8 cc 68 bf
       0.24573793 0.1399219 0.3887903 -0.9093776
000240 80 56 26 c0 16 6b 19 bf 41 c4 e2 3e 7a 76 07 bf
       -2.5990295 -0.59929025 0.44290355 -0.52915156
000250 66 d0 a4 bc d3 76 8e bf 96 a2 01 bf 4c 4b c7 3e
       -0.020118903 -1.1130012 -0.5063871 0.38924634
000260 3f fb c1 bc 0e d7 a6 be 90 af 7f bf a0 d0 39 3f
       -0.023679374 -0.3258595 -0.9987726 0.7258396
000270 f1 bf 72 bd 98 e7 5c 3e 20 a6 b5 be ea ff 95 bb
       -0.05926508 0.21572721 -0.35478306 -0.0045776265
000280 67 0c 94 be c3 66 4d 3e 40 06 9e be 3e 9c 7f bf
       -0.28915712 0.20058732 -0.30864143 -0.9984778
000290 5c 80 ca be 4c f2 39 3e 29 ce eb 3f 8d a5 e3 be
       -0.39551055 0.18158835 1.842229 -0.44462243
0002a0 3d 30 b8 3c af b0 4f bf 02 c8 8f 3e 49 08 3f ba
       0.02248394 -0.8112897 0.2808228 -0.00072873064
0002b0 ae cd 8a bf 0c d5 2e be 5f 88 1b bf 76 b1 2b 3e
       -1.0844018 -0.17073458 -0.6075496 0.16766915
0002c0 d8 19 15 bf 21 84 32 3d 4d 84 14 bc b2 40 2f bc
       -0.5824256 0.04358304 -0.009064746 -0.010696577
0002d0 71 d2 20 3e 72 06 8b bd 87 0a de 3e 42 6a 3f bf
       0.15705277 -0.06788339 0.43367407 -0.7477151
0002e0 0e c0 48 bf aa 59 50 be 52 67 e5 3d 25 fc 04 3e
       -0.7841805 -0.20346704 0.112013474 0.1298681
0002f0 4d 24 91 3d 7b c8 57 bf 66 c0 0f bf d9 f8 65 3e
       0.07087002 -0.84290284 -0.5615295 0.22458209
000300 66 c7 b2 3f 85 0a 8c c0 37 a7 d7 bf 71 ab b8 3d
       1.3967102 -4.376284 -1.6847905 0.09017075
000310 f5 29 d0 bd 65 ea a3 3e 66 47 6b c0 f7 38 8d bf
       -0.10164253 0.32014766 -3.6762328 -1.1033009
000320 a7 fa 55 c0 a8 5b 5d 3e 29 f5 a5 3f 06 57 15 be
       -3.3434236 0.21616995 1.2965442 -0.14583978
000330 a2 6d 23 3e 4a a9 fe 3e 8a e4 69 3f 08 0c b8 3e
       0.1595979 0.49738532 0.9136435 0.3594668
000340 92 c7 3a be 5f e8 54 3e 1c c7 a2 3e d7 71 3d c0
       -0.18240193 0.20791768 0.31792533 -2.9600732
000350 17 fd f7 3e 98 e6 1f 3d 69 e9 25 bf 26 c5 de be
       0.4843528 0.03903827 -0.6480928 -0.43509787
000360 ae 9c ff 3e ce 49 62 bc b7 0f bb bd 22 3d 06 3f
       0.49924225 -0.013811542 -0.09133857 0.5243703
000370 c8 72 7c be c1 4f f5 3f 48 48 89 40 ea be 92 bf
       -0.2465316 1.9164964 4.2900734 -1.1464512
000380 9f 63 5b c0 61 ed 07 c0 e3 c8 e9 3e 6c 84 10 40
       -3.4279554 -2.1238635 0.45661077 2.2580824
000390 b3 2b bd 40 9f 9e 24 c0 75 9c 37 3e 49 0f 07 3e
       5.9115844 -2.5721815 0.17930777 0.13189425
0003a0 7f c0 6e 3f d5 93 be 3e 12 3a 0d c0 e0 7a ad 3e
       0.93262476 0.37222162 -2.2066693 0.3388281
0003b0 d1 59 c1 3d 6d 58 00 3f 49 b5 c6 40 74 9c c5 bf
       0.09440959 0.5013493 6.2096295 -1.5438371
0003c0 54 09 ff 3f 93 09 52 3f 0c 30 11 c0 ac 7c 80 3f
       1.9924722 0.8204586 -2.2685575 1.0038047
0003d0 db a2 a0 3f 92 42 51 bf e5 cf 83 3f a3 ba 8a 3f
       1.25497 -0.81742203 1.0297819 1.0838207
0003e0 e2 38 67 3e c5 27 de bf 93 23 24 3f 25 b7 e5 be
       0.22580293 -1.7355887 0.6411678 -0.4486629
0003f0 03 78 92 be ea f5 4a bf 75 ac 55 3f fe 4e 8a c0
       -0.28607187 -0.79281485 0.83466274 -4.3221426

bias_ih f4 [30]
000000 da 25 9b be 98 37 d6 bf e2 34 f3 3e f5 33 c5 3f
       -0.30302316 -1.6735716 0.47501284 1.5406481
000010 69 26 08 c0 8f 4d 68 bf 7b 9d 98 bf 29 0a c3 bf
       -2.1273444 -0.90743345 -1.1923059 -1.5237476
000020 7f ec 29 40 8f d4 41 bf 04 03 6c bc 85 ee bf be
       2.6550596 -0.75714964 -0.014405016 -0.37486663
000030 8b fc c5 3f 6a e4 5d 3e a0 05 ef 3f e8 b8 e1 be
       1.5467695 0.21669164 1.8673592 -0.44086385
000040 31 d2 c7 be a2 00 21 bf ce 7a 0f 3f 4c 8e 53 3f
       -0.3902755 -0.6289159 0.5604676 0.82639
000050 db 7c 11 3d 56 8c 43 3c ed 23 84 3d dc 53 88 3f
       0.035519462 0.011935314 0.06452165 1.0650592
000060 a6 f2 07 be 31 c5 f6 3d e9 49 3b bc 8e 4f 22 bd
       -0.13276157 0.1204933 -0.011431196 -0.03962665
000070 48 82 a5 3a 1d 6a 3c be
       0.0012627328 -0.18399854

bias_hh f4 [30]
000000 2e d6 14 bf be 37 e1 bf 99 4d 13 3f b9 be c7 3f
       -0.5813931 -1.7595136 0.5754028 1.5605079
000010 69 b4 1a c0 ae 2f 99 bf 17 f7 a8 bf 09 c1 d2 bf
       -2.4172614 -1.1967676 -1.3200406 -1.646516
000020 37 9f 23 40 63 62 33 bf 13 c1 f2 3d e5 02 96 be
       2.5565927 -0.70072 0.11853232 -0.29299083
000030 0f 81 d3 3f 94 45 84 3e 94 cd 08 40 12 3e b3 be
       1.652376 0.25834334 2.1375475 -0.35008293
000040 6f 66 09 bf 14 72 9c be 18 2b 6d 3f 70 fa cc 3e
       -0.53671926 -0.30555785 0.9264388 0.4003482
000050 6c 04 69 3f ee 44 4c bf a1 bd 97 3e 77 aa b1 3f
       0.9102237 -0.7979268 0.29636863 1.3880147
000060 dd 89 6a 3f 0c 30 c3 be 19 b2 56 bf 02 43 de 3e
       0.9161661 -0.38122594 -0.83865505 0.43410498
000070 10 82 5e 3f 76 ce 87 bd
       0.8691721 -0.06631176
